…
h5\")#./keras4.hdf\n","DLseg.compile(optimizer = tf.train.AdamOptimizer(1e-4), loss = iou_loss, metrics = [iou_metric, sym_dif])\n","    \n","\n","DLseg.summary()"],"execution_count":9,"outputs":[{"output_type":"stream","text":["Model: \"deeplabv3plus\"\n","__________________________________________________________________________________________________\n","Layer (type)                    Output Shape         Param #     Connected to                     \n","==================================================================================================\n","input_1 (InputLayer)            [(None, 256, 256, 3) 0                                            \n","__________________________________________________________________________________________________\n","entry_flow_conv1_1 (Conv2D)     (None, 128, 128, 32) 864         input_1[0][0]                    \n","__________________________________________________________________________________________________\n","entry_flow_conv1_1_BN (BatchNor (None, 128, 128, 32) 128         entry_flow_conv1_1[0][0]         \n","__________________________________________________________________________________________________\n","activation (Activation)         (None, 128, 128, 32) 0           entry_flow_conv1_1_BN[0][0]      \n","__________________________________________________________________________________________________\n","entry_flow_conv1_2 (Conv2D)     (None, 128, 128, 64) 18432       activation[0][0]                 \n","__________________________________________________________________________________________________\n","entry_flow_conv1_2_BN (BatchNor (None, 128, 128, 64) 256         entry_flow_conv1_2[0][0]         \n","__________________________________________________________________________________________________\n","activation_1 (Activation)       (None, 128, 128, 64) 0           entry_flow_conv1_2_BN[0][0]      \n","__________________________________________________________________________________________________\n","activation_2 (Activation)       (None, 128, 128, 64) 0           activation_1[0][0]               \n","__________________________________________________________________________________________________\n","entry_flow_block1_separable_con (None, 128, 128, 64) 576         activation_2[0][0]               \n","__________________________________________________________________________________________________\n","entry_flow_block1_separable_con (None, 128, 128, 64) 256         entry_flow_block1_separable_conv1\n","__________________________________________________________________________________________________\n","entry_flow_block1_separable_con (None, 128, 128, 128 8192        entry_flow_block1_separable_conv1\n","__________________________________________________________________________________________________\n","entry_flow_block1_separable_con (None, 128, 
…
28 512         entry_flow_block1_separable_conv2\n","__________________________________________________________________________________________________\n","zero_padding2d (ZeroPadding2D)  (None, 130, 130, 128 0           entry_flow_block1_separable_conv2\n","__________________________________________________________________________________________________\n","activation_4 (Activation)       (None, 130, 130, 128 0           zero_padding2d[0][0]             \n","__________________________________________________________________________________________________\n","entry_flow_block1_separable_con (None, 64, 64, 128)  1152        activation_4[0][0]               \n","__________________________________________________________________________________________________\n","entry_flow_block1_separable_con (None, 64, 64, 128)  512         entry_flow_block1_separable_conv3\n","__________________________________________________________________________________________________\n","zero_padding2d_1 (ZeroPadding2D (None, 128, 128, 64) 0           activation_1[0][0]               \n","__________________________________________________________________________________________________\n","entry_flow_block1_separable_con (None, 64, 64, 128)  16384       entry_flow_block1_separable_conv3\n","__________________________________________________________________________________________________\n","entry_flow_block1_shortcut (Con (None, 64, 64, 128)  8192        zero_padding2d_1[0][0]           \n","__________________________________________________________________________________________________\n","entry_flow_block1_separable_con (None, 64, 64, 128)  512         entry_flow_block1_separable_conv3\n","__________________________________________________________________________________________________\n","entry_flow_block1_shortcut_BN ( (None, 64, 64, 128)  512         entry_flow_block1_shortcut[0][0] \n","__________________________________________________________________________________________________\n","add (Add)                       (None, 64, 64, 128)  0           entry_flow_block1_separable_conv3\n","                                                                 entry_flow_block1_shortcut_BN[0][\n","__________________________________________________________________________________________________\n","activation_5 (Activation)       (None, 64, 64, 128)  0           add[0][0]                        \n","__________________________________________________________________________________________________\n","entry_flow_block2_separable_con (None, 64, 64, 128)  1152        activation_5[0][0]               \n","__________________________________________________________________________________________________\n","entry_flow_block2_separable_con (None, 64, 64, 128)  512         entry_flow_block2_separable_conv1\n","__________________________________________________________________________________________________\n","entry_flow_block2_separable_con (None, 64, 64, 256)  32768       entry_flow_block2_separable_conv1\n","__________________________________________________________________________________________________\n","entry_flow_block2_separable_con (None, 64, 64, 256)  1024        entry_flow_block2_separable_conv1\n","__________________________________________________________________________________________________\n","activation_6 (Activation)       (None, 64, 64, 256)  0           entry_flow_block2_separable_conv1\n","__________________________________________________________________________________________________\n","entry_flow_block2_separable_con (None, 64, 64, 256)  2304        activation_6[0][0]               \n","__________________________________________________________________________________________________\n","entry_flow_block2_separable_con (None, 64, 64, 256)  1024        entry_flow_block2_separable_conv2\n","__________________________________________________________________________________________________\n","entry_flow_block2_separable_con (None, 64, 64, 256)  65536       entry_flow_block2_separable_conv2\n","__________________________________________________________________________________________________\n","entry_flow_block2_separable_con (None, 64, 64, 256)  1024        entry_flow_block2_separable_conv2\n","__________________________________________________________________________________________________\n","zero_padding2d_2 (ZeroPadding2D (None, 66, 66, 256)  0           entry_flow_block2_separable_conv2\n","__________________________________________________________________________________________________\n","activation_7 (Activation)       (None, 66, 66, 256)  0           zero_padding2d_2[0][0]           \n","__________________________________________________________________________________________________\n","entry_flow_block2_separable_con (None, 32, 32, 256)  2304        activation_7[0][0]               \n","__________________________________________________________________________________________________\n","entry_flow_block2_separable_con (None, 32, 32, 256)  1024        entry_flow_block2_separable_conv3\n","__________________________________________________________________________________________________\n","zero_padding2d_3 (ZeroPadding2D (None, 64, 64, 128)  0           add[0][0]                        \n","__________________________________________________________________________________________________\n","entry_flow_block2_separable_con (None, 32, 32, 256)  65536       entry_flow_block2_separable_conv3\n","__________________________________________________________________________________________________\n","entry_flow_block2_shortcut (Con (None, 32, 32, 256)  32768       zero_padding2d_3[0][0]           \n","__________________________________________________________________________________________________\n","entry_flow_block2_separable_con (None, 32, 32, 256)  1024        entry_flow_block2_separable_conv3\n","__________________________________________________________________________________________________\n","entry_flow_block2_shortcut_BN ( (None, 32, 32, 256)  1024        entry_flow_block2_shortcut[0][0] \n","__________________________________________________________________________________________________\n","add_1 (Add)                     (None, 32, 32, 256)  0           entry_flow_block2_separable_conv3\n","                                                                 entry_flow_block2_shortcut_BN[0][\n","__________________________________________________________________________________________________\n","activation_8 (Activation)       (None, 32, 32, 256)  0           add_1[0][0]                      \n","__________________________________________________________________________________________________\n","entry_flow_block3_separable_con (None, 32, 32, 256)  2304        activation_8[0][0]               \n","__________________________________________________________________________________________________\n","entry_flow_block3_separable_con (None, 32, 32, 256)  1024        entry_flow_block3_separable_conv1\n","__________________________________________________________________________________________________\n","entry_flow_block3_separable_con (None, 32, 32, 728)  186368      entry_flow_block3_separable_conv1\n","__________________________________________________________________________________________________\n","entry_flow_block3_separable_con (None, 32, 32, 728)  2912        entry_flow_block3_separable_conv1\n","__________________________________________________________________________________________________\n","activation_9 (Activation)       (None, 32, 32, 728)  0           entry_flow_block3_separable_conv1\n","__________________________________________________________________________________________________\n","entry_flow_block3_separable_con (None, 32, 32, 728)  6552        activation_9[0][0]               \n","__________________________________________________________________________________________________\n","entry_flow_block3_separable_con (None, 32, 32, 728)  2912        entry_flow_block3_separable_conv2\n","__________________________________________________________________________________________________\n","entry_flow_block3_separable_con (None, 32, 32, 728)  529984      entry_flow_block3_separable_conv2\n","__________________________________________________________________________________________________\n","entry_flow_block3_separable_con (None, 32, 32, 728)  2912        entry_flow_block3_separable_conv2\n","__________________________________________________________________________________________________\n","zero_padding2d_4 (ZeroPadding2D (None, 34, 34, 728)  0           entry_flow_block3_separable_conv2\n","__________________________________________________________________________________________________\n","activation_10 (Activation)      (None, 34, 34, 728)  0           zero_padding2d_4[0][0]           \n","__________________________________________________________________________________________________\n","entry_flow_block3_separable_con (None, 16, 16, 728)  6552        activation_10[0][0]              \n","__________________________________________________________________________________________________\n","entry_flow_block3_separable_con (None, 16, 16, 728)  2912        entry_flow_block3_separable_conv3\n","__________________________________________________________________________________________________\n","zero_padding2d_5 (ZeroPadding2D (None, 32, 32, 256)  0           add_1[0][0]                      \n","__________________________________________________________________________________________________\n","entry_flow_block3_separable_con (None, 16, 16, 728)  529984      entry_flow_block3_separable_conv3\n","__________________________________________________________________________________________________\n","entry_flow_block3_shortcut (Con (None, 16, 16, 728)  186368      zero_padding2d_5[0][0]           \n","__________________________________________________________________________________________________\n","entry_flow_block3_separable_con (None, 16, 16, 728)  2912        entry_flow_block3_separable_conv3\n","__________________________________________________________________________________________________\n","entry_flow_block3_shortcut_BN ( (None, 16, 16, 728)  2912        entry_flow_block3_shortcut[0][0] \n","__________________________________________________________________________________________________\n","add_2 (Add)                     (None, 16, 16, 728)  0           entry_flow_block3_separable_conv3\n","                                                                 entry_flow_block3_shortcut_BN[0][\n","__________________________________________________________________________________________________\n","activation_11 (Activation)      (None, 16, 16, 728)  0           add_2[0][0]                      \n","__________________________________________________________________________________________________\n","middle_flow_unit_1_separable_co (None, 16, 16, 728)  6552        activation_11[0][0]              \n","__________________________________________________________________________________________________\n","middle_flow_unit_1_separable_co (None, 16, 16, 728)  2912        middle_flow_unit_1_separable_conv\n","__________________________________________________________________________________________________\n","middle_flow_unit_1_separable_co (None, 16, 16, 728)  529984      middle_flow_unit_1_separable_conv\n","__________________________________________________________________________________________________\n","middle_flow_unit_1_separable_co (None, 16, 16, 728)  2912        middle_flow_unit_1_separable_conv\n","__________________________________________________________________________________________________\n","activation_12 (Activation)      (None, 16, 16, 728)  0           middle_flow_unit_1_separable_conv\n","__________________________________________________________________________________________________\n","middle_flow_unit_1_separable_co (None, 16, 16, 728)  6552        activation_12[0][0]              \n","__________________________________________________________________________________________________\n","middle_flow_unit_1_separable_co (None, 16, 16, 728)  2912        middle_flow_unit_1_separable_conv\n","__________________________________________________________________________________________________\n","middle_flow_unit_1_separable_co (None, 16, 16, 728)  529984      middle_flow_unit_1_separable_conv\n","__________________________________________________________________________________________________\n","middle_flow_unit_1_separable_co (None, 16, 16, 728)  2912        middle_flow_unit_1_separable_conv\n","__________________________________________________________________________________________________\n","activation_13 (Activation)      (None, 16, 16, 728)  0           middle_flow_unit_1_separable_conv\n","__________________________________________________________________________________________________\n","middle_flow_unit_1_separable_co (None, 16, 16, 728)  6552        activation_13[0][0]              \n","__________________________________________________________________________________________________\n","middle_flow_unit_1_separable_co (None, 16, 16, 728)  2912        middle_flow_unit_1_separable_conv\n","__________________________________________________________________________________________________\n","middle_flow_unit_1_separable_co (None, 16, 16, 728)  529984      middle_flow_unit_1_separable_conv\n","__________________________________________________________________________________________________\n","middle_flow_unit_1_separable_co (None, 16, 16, 728)  2912        middle_flow_unit_1_separable_conv\n","__________________________________________________________________________________________________\n","add_3 (Add)                     (None, 16, 16, 728)  0           middle_flow_unit_1_separable_conv\n","                                                                 add_2[0][0]                      \n","__________________________________________________________________________________________________\n","activation_14 (Activation)      (None, 16, 16, 728)  0           add_3[0][0]                      \n","__________________________________________________________________________________________________\n","middle_flow_unit_2_separable_co (None, 16, 16, 728)  6552        activation_14[0][0]              \n","__________________________________________________________________________________________________\n","middle_flow_unit_2_separable_co (None, 16, 16, 728)  2912        middle_flow_unit_2_separable_conv\n","__________________________________________________________________________________________________\n","middle_flow_unit_2_separable_co (None, 16, 16, 728)  529984      middle_flow_unit_2_separable_conv\n","__________________________________________________________________________________________________\n","middle_flow_unit_2_separable_co (None, 16, 16, 728)  2912        middle_flow_unit_2_separable_conv\n","__________________________________________________________________________________________________\n","activation_15 (Activation)      (None, 16, 16, 728)  0           middle_flow_unit_2_separable_conv\n","__________________________________________________________________________________________________\n","middle_flow_unit_2_separable_co (None, 16, 16, 728)  6552        activation_15[0][0]              \n","__________________________________________________________________________________________________\n","middle_flow_unit_2_separable_co (None, 16, 16, 728)  2912        middle_flow_unit_2_separable_conv\n","__________________________________________________________________________________________________\n","middle_flow_unit_2_separable_co (None, 16, 16, 728)  529984      middle_flow_unit_2_separable_conv\n","__________________________________________________________________________________________________\n","middle_flow_unit_2_separable_co (None, 16, 16, 728)  2912        middle_flow_unit_2_separable_conv\n","__________________________________________________________________________________________________\n","activation_16 (Activation)      (None, 16, 16, 728)  0           middle_flow_unit_2_separable_conv\n","__________________________________________________________________________________________________\n","middle_flow_unit_2_separable_co (None, 16, 16, 728)  6552        activation_16[0][0]              \n","__________________________________________________________________________________________________\n","middle_flow_unit_2_separable_co (None, 16, 16, 728)  2912        middle_flow_unit_2_separable_conv\n","__________________________________________________________________________________________________\n","middle_flow_unit_2_separable_co (None, 16, 16, 728)  529984      middle_flow_unit_2_separable_conv\n","__________________________________________________________________________________________________\n","middle_flow_unit_2_separable_co (None, 16, 16, 728)  2912        middle_flow_unit_2_separable_conv\n","__________________________________________________________________________________________________\n","add_4 (Add)                     (None, 16, 16, 728)  0           middle_flow_unit_2_separable_conv\n","                                                                 add_3[0][0]                      \n","__________________________________________________________________________________________________\n","activation_17 (Activation)      (None, 16, 16, 728)  0           add_4[0][0]                      \n","__________________________________________________________________________________________________\n","middle_flow_unit_3_separable_co (None, 16, 16, 728)  6552        activation_17[0][0]              \n","__________________________________________________________________________________________________\n","middle_flow_unit_3_separable_co (None, 16, 16, 728)  2912        middle_flow_unit_3_separable_conv\n","__________________________________________________________________________________________________\n","middle_flow_unit_3_separable_co (None, 16, 16, 728)  529984      middle_flow_unit_3_separable_conv\n","__________________________________________________________________________________________________\n","middle_flow_unit_3_separable_co (None, 16, 16, 728)  2912        middle_flow_unit_3_separable_conv\n","__________________________________________________________________________________________________\n","activation_18 (Activation)      (None, 16, 16, 728)  0           middle_flow_unit_3_separable_conv\n","__________________________________________________________________________________________________\n","middle_flow_unit_3_separable_co (None, 16, 16, 728)  6552        activation_18[0][0]              \n","__________________________________________________________________________________________________\n","middle_flow_unit_3_separable_co (None, 16, 16, 728)  2912        middle_flow_unit_3_separable_conv\n","__________________________________________________________________________________________________\n","middle_flow_unit_3_separable_co (None, 16, 16, 728)  529984      middle_flow_unit_3_separable_conv\n","__________________________________________________________________________________________________\n","middle_flow_unit_3_separable_co (None, 16, 16, 728)  2912        middle_flow_unit_3_separable_conv\n","__________________________________________________________________________________________________\n","activation_19 (Activation)      (None, 16, 16, 728)  0           middle_flow_unit_3_separable_conv\n","__________________________________________________________________________________________________\n","middle_flow_unit_3_separable_co (None, 16, 16, 728)  6552        activation_19[0][0]              \n","__________________________________________________________________________________________________\n","middle_flow_unit_3_separable_co (None, 16, 16, 728)  2912        middle_flow_unit_3_separable_conv\n","__________________________________________________________________________________________________\n","middle_flow_unit_3_separable_co (None, 16, 16, 728)  529984      middle_flow_unit_3_separable_conv\n","__________________________________________________________________________________________________\n","middle_flow_unit_3_separable_co (None, 16, 16, 728)  2912        middle_flow_unit_3_separable_conv\n","__________________________________________________________________________________________________\n","add_5 (Add)                     (None, 16, 16, 728)  0           middle_flow_unit_3_separable_conv\n","                                                                 add_4[0][0]                      \n","__________________________________________________________________________________________________\n","activation_20 (Activation)      (None, 16, 16, 728)  0           add_5[0][0]                      \n","__________________________________________________________________________________________________\n","middle_flow_unit_4_separable_co (None, 16, 16, 728)  6552        activation_20[0][0]              \n","__________________________________________________________________________________________________\n","middle_flow_unit_4_separable_co (None, 16, 16, 728)  2912        middle_flow_unit_4_separable_conv\n","__________________________________________________________________________________________________\n","middle_flow_unit_4_separable_co (None, 16, 16, 728)  529984      middle_flow_unit_4_separable_conv\n","__________________________________________________________________________________________________\n","middle_flow_unit_4_separable_co (None, 16, 16, 728)  2912        middle_flow_unit_4_separable_conv\n","__________________________________________________________________________________________________\n","activation_21 (Activation)      (None, 16, 16, 728)  0           middle_flow_unit_4_separable_conv\n","__________________________________________________________________________________________________\n","middle_flow_unit_4_separable_co (None, 16, 16, 728)  6552        activation_21[0][0]              \n","__________________________________________________________________________________________________\n","middle_flow_unit_4_separable_co (None, 16, 16, 728)  2912        middle_flow_unit_4_separable_conv\n","__________________________________________________________________________________________________\n","middle_flow_unit_4_separable_co (None, 16, 16, 728)  529984      middle_flow_unit_4_separable_conv\n","__________________________________________________________________________________________________\n","middle_flow_unit_4_separable_co (None, 16, 16, 728)  2912        middle_flow_unit_4_separable_conv\n","__________________________________________________________________________________________________\n","activation_22 (Activation)      (None, 16, 16, 728)  0           middle_flow_unit_4_separable_conv\n","__________________________________________________________________________________________________\n","middle_flow_unit_4_separable_co (None, 16, 16, 728)  6552        activation_22[0][0]              \n","__________________________________________________________________________________________________\n","middle_flow_unit_4_separable_co (None, 16, 16, 728)  2912        middle_flow_unit_4_separable_conv\n","__________________________________________________________________________________________________\n","middle_flow_unit_4_separable_co (None, 16, 16, 728)  529984      middle_flow_unit_4_separable_conv\n","__________________________________________________________________________________________________\n","middle_flow_unit_4_separable_co (None, 16, 16, 728)  2912        middle_flow_unit_4_separable_conv\n","__________________________________________________________________________________________________\n","add_6 (Add)                     (None, 16, 16, 728)  0           middle_flow_unit_4_separable_conv\n","                                                                 add_5[0][0]                      \n","__________________________________________________________________________________________________\n","activation_23 (Activation)      (None, 16, 16, 728)  0           add_6[0][0]                      \n","__________________________________________________________________________________________________\n","middle_flow_unit_5_separable_co (None, 16, 16, 728)  6552        activation_23[0][0]              \n","__________________________________________________________________________________________________\n","middle_flow_unit_5_separable_co (None, 16, 16, 728)  2912        middle_flow_unit_5_separable_conv\n","__________________________________________________________________________________________________\n","middle_flow_unit_5_separable_co (None, 16, 16, 728)  529984      middle_flow_unit_5_separable_conv\n","__________________________________________________________________________________________________\n","middle_flow_unit_5_separable_co (None, 16, 16, 728)  2912        middle_flow_unit_5_separable_conv\n","__________________________________________________________________________________________________\n","activation_24 (Activation)      (None, 16, 16, 728)  0           middle_flow_unit_5_separable_conv\n","__________________________________________________________________________________________________\n","middle_flow_unit_5_separable_co (None, 16, 16, 728)  6552        activation_24[0][0]              \n","__________________________________________________________________________________________________\n","middle_flow_unit_5_separable_co (None, 16, 16, 728)  2912        middle_flow_unit_5_separable_conv\n","__________________________________________________________________________________________________\n","middle_flow_unit_5_separable_co (None, 16, 16, 728)  529984      middle_flow_unit_5_separable_conv\n","__________________________________________________________________________________________________\n","middle_flow_unit_5_separable_co (None, 16, 16, 728)  2912        middle_flow_unit_5_separable_conv\n","__________________________________________________________________________________________________\n","activation_25 (Activation)      (None, 16, 16, 728)  0           middle_flow_unit_5_separable_conv\n","__________________________________________________________________________________________________\n","middle_flow_unit_5_separable_co (None, 16, 16, 728)  6552        activation_25[0][0]              \n","__________________________________________________________________________________________________\n","middle_flow_unit_5_separable_co (None, 16, 16, 728)  2912        middle_flow_unit_5_separable_conv\n","__________________________________________________________________________________________________\n","middle_flow_unit_5_separable_co (None, 16, 16, 728)  529984      middle_flow_unit_5_separable_conv\n","__________________________________________________________________________________________________\n","middle_flow_unit_5_separable_co (None, 16, 16, 728)  2912        middle_flow_unit_5_separable_conv\n","__________________________________________________________________________________________________\n","add_7 (Add)                     (None, 16, 16, 728)  0           middle_flow_unit_5_separable_conv\n","                                                                 add_6[0][0]                      \n","__________________________________________________________________________________________________\n","activation_26 (Activation)      (None, 16, 16, 728)  0           add_7[0][0]                      \n","__________________________________________________________________________________________________\n","middle_flow_unit_6_separable_co (None, 16, 16, 728)  6552        activation_26[0][0]              \n","__________________________________________________________________________________________________\n","middle_flow_unit_6_separable_co (None, 16, 16, 728)  2912        middle_flow_unit_6_separable_conv\n","__________________________________________________________________________________________________\n","middle_flow_unit_6_separable_co (None, 16, 16, 728)  529984      middle_flow_unit_6_separable_conv\n","__________________________________________________________________________________________________\n","middle_flow_unit_6_separable_co (None, 16, 16, 728)  2912        middle_flow_unit_6_separable_conv\n","__________________________________________________________________________________________________\n","activation_27 (Activation)      (None, 16, 16, 728)  0           middle_flow_unit_6_separable_conv\n","__________________________________________________________________________________________________\n","middle_flow_unit_6_separable_co (None, 16, 16, 728)  6552        activation_27[0][0]              \n","__________________________________________________________________________________________________\n","middle_flow_unit_6_separable_co (None, 16, 16, 728)  2912        middle_flow_unit_6_separable_conv\n","__________________________________________________________________________________________________\n","middle_flow_unit_6_separable_co (None, 16, 16, 728)  529984      middle_flow_unit_6_separable_conv\n","__________________________________________________________________________________________________\n","middle_flow_unit_6_separable_co (None, 16, 16, 728)  2912        middle_flow_unit_6_separable_conv\n","__________________________________________________________________________________________________\n","activation_28 (Activation)      (None, 16, 16, 728)  0           middle_flow_unit_6_separable_conv\n","__________________________________________________________________________________________________\n","middle_flow_unit_6_separable_co (None, 16, 16, 728)  6552        activation_28[0][0]              \n","__________________________________________________________________________________________________\n","middle_flow_unit_6_separable_co (None, 16, 16, 728)  2912        middle_flow_unit_6_separable_conv\n","__________________________________________________________________________________________________\n","middle_flow_unit_6_separable_co (None, 16, 16, 728)  529984      middle_flow_unit_6_separable_conv\n","__________________________________________________________________________________________________\n","middle_flow_unit_6_separable_co (None, 16, 16, 728)  2912        middle_flow_unit_6_separable_conv\n","__________________________________________________________________________________________________\n","add_8 (Add)                     (None, 16, 16, 728)  0           middle_flow_unit_6_separable_conv\n","                                                                 add_7[0][0]                      \n","__________________________________________________________________________________________________\n","activation_29 (Activation)      (None, 16, 16, 728)  0           add_8[0][0]                      \n","__________________________________________________________________________________________________\n","middle_flow_unit_7_separable_co (None, 16, 16, 728)  6552        activation_29[0][0]              \n","__________________________________________________________________________________________________\n","middle_flow_unit_7_separable_co (None, 16, 16, 728)  2912        middle_flow_unit_7_separable_conv\n","__________________________________________________________________________________________________\n","middle_flow_unit_7_separable_co (None, 16, 16, 728)  529984      middle_flow_unit_7_separable_conv\n","__________________________________________________________________________________________________\n","middle_flow_unit_7_separable_co (None, 16, 16, 728)  2912        middle_flow_unit_7_separable_conv\n","__________________________________________________________________________________________________\n","activation_30 (Activation)      (None, 16, 16, 728)  0           middle_flow_unit_7_separable_conv\n","__________________________________________________________________________________________________\n","middle_flow_unit_7_separable_co (None, 16, 16, 728)  6552        activation_30[0][0]              \n","__________________________________________________________________________________________________\n","middle_flow_unit_7_separable_co (None, 16, 16, 728)  2912        middle_flow_unit_7_separable_conv\n","__________________________________________________________________________________________________\n","middle_flow_unit_7_separable_co (None, 16, 16, 728)  529984      middle_flow_unit_7_separable_conv\n","__________________________________________________________________________________________________\n","middle_flow_unit_7_separable_co (None, 16, 16, 728)  2912        middle_flow_unit_7_separable_conv\n","__________________________________________________________________________________________________\n","activation_31 (Activation)      (None, 16, 16, 728)  0           middle_flow_unit_7_separable_conv\n","__________________________________________________________________________________________________\n","middle_flow_unit_7_separable_co (None, 16, 16, 728)  6552        activation_31[0][0]              \n","__________________________________________________________________________________________________\n","middle_flow_unit_7_separable_co (None, 16, 16, 728)  2912        middle_flow_unit_7_separable_conv\n","__________________________________________________________________________________________________\n","middle_flow_unit_7_separable_co (None, 16, 16, 728)  529984      middle_flow_unit_7_separable_conv\n","__________________________________________________________________________________________________\n","middle_flow_unit_7_separable_co (None, 16, 16, 728)  2912        middle_flow_unit_7_separable_conv\n","__________________________________________________________________________________________________\n","add_9 (Add)                     (None, 16, 16, 728)  0           middle_flow_unit_7_separable_conv\n","                                                                 add_8[0][0]                      \n","__________________________________________________________________________________________________\n","activation_32 (Activation)      (None, 16, 16, 728)  0           add_9[0][0]                      \n","__________________________________________________________________________________________________\n","middle_flow_unit_8_separable_co (None, 16, 16, 728)  6552        activation_32[0][0]              \n","__________________________________________________________________________________________________\n","middle_flow_unit_8_separable_co (None, 16, 16, 728)  2912        middle_flow_unit_8_separable_conv\n","__________________________________________________________________________________________________\n","middle_flow_unit_8_separable_co (None, 16, 16, 728)  529984      middle_flow_unit_8_separable_conv\n","__________________________________________________________________________________________________\n","middle_flow_unit_8_separable_co (None, 16, 16, 728)  2912        middle_flow_unit_8_separable_conv\n","__________________________________________________________________________________________________\n","activation_33 (Activation)      (None, 16, 16, 728)  0           middle_flow_unit_8_separable_conv\n","__________________________________________________________________________________________________\n","middle_flow_unit_8_separable_co (None, 16, 16, 728)  6552        activation_33[0][0]              \n","__________________________________________________________________________________________________\n","middle_flow_unit_8_separable_co (None, 16, 16, 728)  2912        middle_flow_unit_8_separable_conv\n","__________________________________________________________________________________________________\n","middle_flow_unit_8_separable_co (None, 16, 16, 728)  529984      middle_flow_unit_8_separable_conv\n","__________________________________________________________________________________________________\n","middle_flow_unit_8_separable_co (None, 16, 16, 728)  2912        middle_flow_unit_8_separable_conv\n","__________________________________________________________________________________________________\n","activation_34 (Activation)      (None, 16, 16, 728)  0           middle_flow_unit_8_separable_conv\n","__________________________________________________________________________________________________\n","middle_flow_unit_8_separable_co (None, 16, 16, 728)  6552        activation_34[0][0]              \n","__________________________________________________________________________________________________\n","middle_flow_unit_8_separable_co (None, 16, 16, 728)  2912        middle_flow_unit_8_separable_conv\n","__________________________________________________________________________________________________\n","middle_flow_unit_8_separable_co (None, 16, 16, 728)  529984      middle_flow_unit_8_separable_conv\n","__________________________________________________________________________________________________\n","middle_flow_unit_8_separable_co (None, 16, 16, 728)  2912        middle_flow_unit_8_separable_conv\n","__________________________________________________________________________________________________\n","add_10 (Add)                    (None, 16, 16, 728)  0           middle_flow_unit_8_separable_conv\n","                                                                 add_9[0][0]                      \n","__________________________________________________________________________________________________\n","activation_35 (Activation)      (None, 16, 16, 728)  0           add_10[0][0]                     \n","__________________________________________________________________________________________________\n","middle_flow_unit_9_separable_co (None, 16, 16, 728)  6552        activation_35[0][0]              \n","__________________________________________________________________________________________________\n","middle_flow_unit_9_separable_co (None, 16, 16, 728)  2912        middle_flow_unit_9_separable_conv\n","__________________________________________________________________________________________________\n","middle_flow_unit_9_separable_co (None, 16, 16, 728)  529984      middle_flow_unit_9_separable_conv\n","__________________________________________________________________________________________________\n","middle_flow_unit_9_separable_co (None, 16, 16, 728)  2912        middle_flow_unit_9_separable_conv\n","__________________________________________________________________________________________________\n","activation_36 (Activation)      (None, 16, 16, 728)  0           middle_flow_unit_9_separable_conv\n","__________________________________________________________________________________________________\n","middle_flow_unit_9_separable_co (None, 16, 16, 728)  6552        activation_36[0][0]              \n","__________________________________________________________________________________________________\n","middle_flow_unit_9_separable_co (None, 16, 16, 728)  2912        middle_flow_unit_9_separable_conv\n","__________________________________________________________________________________________________\n","middle_flow_unit_9_separable_co (None, 16, 16, 728)  529984      middle_flow_unit_9_separable_conv\n","__________________________________________________________________________________________________\n","middle_flow_unit_9_separable_co (None, 16, 16, 728)  2912        middle_flow_unit_9_separable_conv\n","__________________________________________________________________________________________________\n","activation_37 (Activation)      (None, 16, 16, 728)  0           middle_flow_unit_9_separable_conv\n","__________________________________________________________________________________________________\n","middle_flow_unit_9_separable_co (None, 16, 16, 728)  6552        activation_37[0][0]              \n","__________________________________________________________________________________________________\n","middle_flow_unit_9_separable_co (None, 16, 16, 728)  2912        middle_flow_unit_9_separable_conv\n","__________________________________________________________________________________________________\n","middle_flow_unit_9_separable_co (None, 16, 16, 728)  529984      middle_flow_unit_9_separable_conv\n","__________________________________________________________________________________________________\n","middle_flow_unit_9_separable_co (None, 16, 16, 728)  2912        middle_flow_unit_9_separable_conv\n","__________________________________________________________________________________________________\n","add_11 (Add)                    (None, 16, 16, 728)  0           middle_flow_unit_9_separable_conv\n","                                                                 add_10[0][0]                     \n","__________________________________________________________________________________________________\n","activation_38 (Activation)      (None, 16, 16, 728)  0           add_11[0][0]                     \n","__________________________________________________________________________________________________\n","middle_flow_unit_10_separable_c (None, 16, 16, 728)  6552        activation_38[0][0]              \n","__________________________________________________________________________________________________\n","middle_flow_unit_10_separable_c (None, 16, 16, 728)  2912        middle_flow_unit_10_separable_con\n","__________________________________________________________________________________________________\n","middle_flow_unit_10_separable_c (None, 16, 16, 728)  529984      middle_flow_unit_10_separable_con\n","__________________________________________________________________________________________________\n","middle_flow_unit_10_separable_c (None, 16, 16, 728)  2912        middle_flow_unit_10_separable_con\n","__________________________________________________________________________________________________\n","activation_39 (Activation)      (None, 16, 16, 728)  0           middle_flow_unit_10_separable_con\n","__________________________________________________________________________________________________\n","middle_flow_unit_10_separable_c (None, 16, 16, 728)  6552        activation_39[0][0]              \n","__________________________________________________________________________________________________\n","middle_flow_unit_10_separable_c (None, 16, 16, 728)  2912        middle_flow_unit_10_separable_con\n","__________________________________________________________________________________________________\n","middle_flow_unit_10_separable_c (None, 16, 16, 728)  529984      middle_flow_unit_10_separable_con\n","__________________________________________________________________________________________________\n","middle_flow_unit_10_separable_c (None, 16, 16, 728)  2912        middle_flow_unit_10_separable_con\n","__________________________________________________________________________________________________\n","activation_40 (Activation)      (None, 16, 16, 728)  0           middle_flow_unit_10_separable_con\n","__________________________________________________________________________________________________\n","middle_flow_unit_10_separable_c (None, 16, 16, 728)  6552        activation_40[0][0]              \n","__________________________________________________________________________________________________\n","middle_flow_unit_10_separable_c (None, 16, 16, 728)  2912        middle_flow_unit_10_separable_con\n","__________________________________________________________________________________________________\n","middle_flow_unit_10_separable_c (None, 16, 16, 728)  529984      middle_flow_unit_10_separable_con\n","__________________________________________________________________________________________________\n","middle_flow_unit_10_separable_c (None, 16, 16, 728)  2912        middle_flow_unit_10_separable_con\n","__________________________________________________________________________________________________\n","add_12 (Add)                    (None, 16, 16, 728)  0           middle_flow_unit_10_separable_con\n","                                                                 add_11[0][0]                     \n","__________________________________________________________________________________________________\n","activation_41 (Activation)      (None, 16, 16, 728)  0           add_12[0][0]                     \n","__________________________________________________________________________________________________\n","middle_flow_unit_11_separable_c (None, 16, 16, 728)  6552        activation_41[0][0]              \n","__________________________________________________________________________________________________\n","middle_flow_unit_11_separable_c (None, 16, 16, 728)  2912        middle_flow_unit_11_separable_con\n","__________________________________________________________________________________________________\n","middle_flow_unit_11_separable_c (None, 16, 16, 728)  529984      middle_flow_unit_11_separable_con\n","__________________________________________________________________________________________________\n","middle_flow_unit_11_separable_c (None, 16, 16, 728)  2912        middle_flow_unit_11_separable_con\n","__________________________________________________________________________________________________\n","activation_42 (Activation)      (None, 16, 16, 728)  0           middle_flow_unit_11_separable_con\n","__________________________________________________________________________________________________\n","middle_flow_unit_11_separable_c (None, 16, 16, 728)  6552        activation_42[0][0]              \n","__________________________________________________________________________________________________\n","middle_flow_unit_11_separable_c (None, 16, 16, 728)  2912        middle_flow_unit_11_separable_con\n","__________________________________________________________________________________________________\n","middle_flow_unit_11_separable_c (None, 16, 16, 728)  529984      middle_flow_unit_11_separable_con\n","__________________________________________________________________________________________________\n","middle_flow_unit_11_separable_c (None, 16, 16, 728)  2912        middle_flow_unit_11_separable_con\n","__________________________________________________________________________________________________\n","activation_43 (Activation)      (None, 16, 16, 728)  0           middle_flow_unit_11_separable_con\n","__________________________________________________________________________________________________\n","middle_flow_unit_11_separable_c (None, 16, 16, 728)  6552        activation_43[0][0]              \n","__________________________________________________________________________________________________\n","middle_flow_unit_11_separable_c (None, 16, 16, 728)  2912        middle_flow_unit_11_separable_con\n","__________________________________________________________________________________________________\n","middle_flow_unit_11_separable_c (None, 16, 16, 728)  529984      middle_flow_unit_11_separable_con\n","__________________________________________________________________________________________________\n","middle_flow_unit_11_separable_c (None, 16, 16, 728)  2912        middle_flow_unit_11_separable_con\n","__________________________________________________________________________________________________\n","add_13 (Add)                    (None, 16, 16, 728)  0           middle_flow_unit_11_separable_con\n","                                                                 add_12[0][0]                     \n","__________________________________________________________________________________________________\n","activation_44 (Activation)      (None, 16, 16, 728)  0           add_13[0][0]                     \n","__________________________________________________________________________________________________\n","middle_flow_unit_12_separable_c (None, 16, 16, 728)  6552        activation_44[0][0]              \n","__________________________________________________________________________________________________\n","middle_flow_unit_12_separable_c (None, 16, 16, 728)  2912        middle_flow_unit_12_separable_con\n","__________________________________________________________________________________________________\n","middle_flow_unit_12_separable_c (None, 16, 16, 728)  529984      middle_flow_unit_12_separable_con\n","__________________________________________________________________________________________________\n","middle_flow_unit_12_separable_c (None, 16, 16, 728)  2912        middle_flow_unit_12_separable_con\n","__________________________________________________________________________________________________\n","activation_45 (Activation)      (None, 16, 16, 728)  0           middle_flow_unit_12_separable_con\n","__________________________________________________________________________________________________\n","middle_flow_unit_12_separable_c (None, 16, 16, 728)  6552        activation_45[0][0]              \n","__________________________________________________________________________________________________\n","middle_flow_unit_12_separable_c (None, 16, 16, 728)  2912        middle_flow_unit_12_separable_con\n","__________________________________________________________________________________________________\n","middle_flow_unit_12_separable_c (None, 16, 16, 728)  529984      middle_flow_unit_12_separable_con\n","__________________________________________________________________________________________________\n","middle_flow_unit_12_separable_c (None, 16, 16, 728)  2912        middle_flow_unit_12_separable_con\n","__________________________________________________________________________________________________\n","activation_46 (Activation)      (None, 16, 16, 728)  0           middle_flow_unit_12_separable_con\n","__________________________________________________________________________________________________\n","middle_flow_unit_12_separable_c (None, 16, 16, 728)  6552        activation_46[0][0]              \n","__________________________________________________________________________________________________\n","middle_flow_unit_12_separable_c (None, 16, 16, 728)  2912        middle_flow_unit_12_separable_con\n","__________________________________________________________________________________________________\n","middle_flow_unit_12_separable_c (None, 16, 16, 728)  529984      middle_flow_unit_12_separable_con\n","__________________________________________________________________________________________________\n","middle_flow_unit_12_separable_c (None, 16, 16, 728)  2912        middle_flow_unit_12_separable_con\n","__________________________________________________________________________________________________\n","add_14 (Add)                    (None, 16, 16, 728)  0           middle_flow_unit_12_separable_con\n","                                                                 add_13[0][0]                     \n","__________________________________________________________________________________________________\n","activation_47 (Activation)      (None, 16, 16, 728)  0           add_14[0][0]                     \n","__________________________________________________________________________________________________\n","middle_flow_unit_13_separable_c (None, 16, 16, 728)  6552        activation_47[0][0]              \n","__________________________________________________________________________________________________\n","middle_flow_unit_13_separable_c (None, 16, 16, 728)  2912        middle_flow_unit_13_separable_con\n","__________________________________________________________________________________________________\n","middle_flow_unit_13_separable_c (None, 16, 16, 728)  529984      middle_flow_unit_13_separable_con\n","__________________________________________________________________________________________________\n","middle_flow_unit_13_separable_c (None, 16, 16, 728)  2912        middle_flow_unit_13_separable_con\n","__________________________________________________________________________________________________\n","activation_48 (Activation)      (None, 16, 16, 728)  0           middle_flow_unit_13_separable_con\n","__________________________________________________________________________________________________\n","middle_flow_unit_13_separable_c (None, 16, 16, 728)  6552        activation_48[0][0]              \n","__________________________________________________________________________________________________\n","middle_flow_unit_13_separable_c (None, 16, 16, 728)  2912        middle_flow_unit_13_separable_con\n","__________________________________________________________________________________________________\n","middle_flow_unit_13_separable_c (None, 16, 16, 728)  529984      middle_flow_unit_13_separable_con\n","__________________________________________________________________________________________________\n","middle_flow_unit_13_separable_c (None, 16, 16, 728)  2912        middle_flow_unit_13_separable_con\n","__________________________________________________________________________________________________\n","activation_49 (Activation)      (None, 16, 16, 728)  0           middle_flow_unit_13_separable_con\n","__________________________________________________________________________________________________\n","middle_flow_unit_13_separable_c (None, 16, 16, 728)  6552        activation_49[0][0]              \n","__________________________________________________________________________________________________\n","middle_flow_unit_13_separable_c (None, 16, 16, 728)  2912        middle_flow_unit_13_separable_con\n","__________________________________________________________________________________________________\n","middle_flow_unit_13_separable_c (None, 16, 16, 728)  529984      middle_flow_unit_13_separable_con\n","__________________________________________________________________________________________________\n","middle_flow_unit_13_separable_c (None, 16, 16, 728)  2912        middle_flow_unit_13_separable_con\n","__________________________________________________________________________________________________\n","add_15 (Add)                    (None, 16, 16, 728)  0           middle_flow_unit_13_separable_con\n","                                                                 add_14[0][0]                     \n","__________________________________________________________________________________________________\n","activation_50 (Activation)      (None, 16, 16, 728)  0           add_15[0][0]                     \n","__________________________________________________________________________________________________\n","middle_flow_unit_14_separable_c (None, 16, 16, 728)  6552        activation_50[0][0]              \n","__________________________________________________________________________________________________\n","middle_flow_unit_14_separable_c (None, 16, 16, 728)  2912        middle_flow_unit_14_separable_con\n","__________________________________________________________________________________________________\n","middle_flow_unit_14_separable_c (None, 16, 16, 728)  529984      middle_flow_unit_14_separable_con\n","__________________________________________________________________________________________________\n","middle_flow_unit_14_separable_c (None, 16, 16, 728)  2912        middle_flow_unit_14_separable_con\n","__________________________________________________________________________________________________\n","activation_51 (Activation)      (None, 16, 16, 728)  0           middle_flow_unit_14_separable_con\n","__________________________________________________________________________________________________\n","middle_flow_unit_14_separable_c (None, 16, 16, 728)  6552        activation_51[0][0]              \n","__________________________________________________________________________________________________\n","middle_flow_unit_14_separable_c (None, 16, 16, 728)  2912        middle_flow_unit_14_separable_con\n","__________________________________________________________________________________________________\n","middle_flow_unit_14_separable_c (None, 16, 16, 728)  529984      middle_flow_unit_14_separable_con\n","__________________________________________________________________________________________________\n","middle_flow_unit_14_separable_c (None, 16, 16, 728)  2912        middle_flow_unit_14_separable_con\n","__________________________________________________________________________________________________\n","activation_52 (Activation)      (None, 16, 16, 728)  0           middle_flow_unit_14_separable_con\n","__________________________________________________________________________________________________\n","middle_flow_unit_14_separable_c (None, 16, 16, 728)  6552        activation_52[0][0]              \n","__________________________________________________________________________________________________\n","middle_flow_unit_14_separable_c (None, 16, 16, 728)  2912        middle_flow_unit_14_separable_con\n","__________________________________________________________________________________________________\n","middle_flow_unit_14_separable_c (None, 16, 16, 728)  529984      middle_flow_unit_14_separable_con\n","__________________________________________________________________________________________________\n","middle_flow_unit_14_separable_c (None, 16, 16, 728)  2912        middle_flow_unit_14_separable_con\n","__________________________________________________________________________________________________\n","add_16 (Add)                    (None, 16, 16, 728)  0           middle_flow_unit_14_separable_con\n","                                                                 add_15[0][0]                     \n","__________________________________________________________________________________________________\n","activation_53 (Activation)      (None, 16, 16, 728)  0           add_16[0][0]                     \n","__________________________________________________________________________________________________\n","middle_flow_unit_15_separable_c (None, 16, 16, 728)  6552        activation_53[0][0]              \n","__________________________________________________________________________________________________\n","middle_flow_unit_15_separable_c (None, 16, 16, 728)  2912        middle_flow_unit_15_separable_con\n","__________________________________________________________________________________________________\n","middle_flow_unit_15_separable_c (None, 16, 16, 728)  529984      middle_flow_unit_15_separable_con\n","__________________________________________________________________________________________________\n","middle_flow_unit_15_separable_c (None, 16, 16, 728)  2912        middle_flow_unit_15_separable_con\n","__________________________________________________________________________________________________\n","activation_54 (Activation)      (None, 16, 16, 728)  0           middle_flow_unit_15_separable_con\n","__________________________________________________________________________________________________\n","middle_flow_unit_15_separable_c (None, 16, 16, 728)  6552        activation_54[0][0]              \n","__________________________________________________________________________________________________\n","middle_flow_unit_15_separable_c (None, 16, 16, 728)  2912        middle_flow_unit_15_separable_con\n","__________________________________________________________________________________________________\n","middle_flow_unit_15_separable_c (None, 16, 16, 728)  529984      middle_flow_unit_15_separable_con\n","__________________________________________________________________________________________________\n","middle_flow_unit_15_separable_c (None, 16, 16, 728)  2912        middle_flow_unit_15_separable_con\n","__________________________________________________________________________________________________\n","activation_55 (Activation)      (None, 16, 16, 728)  0           middle_flow_unit_15_separable_con\n","__________________________________________________________________________________________________\n","middle_flow_unit_15_separable_c (None, 16, 16, 728)  6552        activation_55[0][0]              \n","__________________________________________________________________________________________________\n","middle_flow_unit_15_separable_c (None, 16, 16, 728)  2912        middle_flow_unit_15_separable_con\n","__________________________________________________________________________________________________\n","middle_flow_unit_15_separable_c (None, 16, 16, 728)  529984      middle_flow_unit_15_separable_con\n","__________________________________________________________________________________________________\n","middle_flow_unit_15_separable_c (None, 16, 16, 728)  2912        middle_flow_unit_15_separable_con\n","__________________________________________________________________________________________________\n","add_17 (Add)                    (None, 16, 16, 728)  0           middle_flow_unit_15_separable_con\n","                                                                 add_16[0][0]                     \n","__________________________________________________________________________________________________\n","activation_56 (Activation)      (None, 16, 16, 728)  0           add_17[0][0]                     \n","__________________________________________________________________________________________________\n","middle_flow_unit_16_separable_c (None, 16, 16, 728)  6552        activation_56[0][0]              \n","__________________________________________________________________________________________________\n","middle_flow_unit_16_separable_c (None, 16, 16, 728)  2912        middle_flow_unit_16_separable_con\n","__________________________________________________________________________________________________\n","middle_flow_unit_16_separable_c (None, 16, 16, 728)  529984      middle_flow_unit_16_separable_con\n","__________________________________________________________________________________________________\n","middle_flow_unit_16_separable_c (None, 16, 16, 728)  2912        middle_flow_unit_16_separable_con\n","__________________________________________________________________________________________________\n","activation_57 (Activation)      (None, 16, 16, 728)  0           middle_flow_unit_16_separable_con\n","__________________________________________________________________________________________________\n","middle_flow_unit_16_separable_c (None, 16, 16, 728)  6552        activation_57[0][0]              \n","__________________________________________________________________________________________________\n","middle_flow_unit_16_separable_c (None, 16, 16, 728)  2912        middle_flow_unit_16_separable_con\n","__________________________________________________________________________________________________\n","middle_flow_unit_16_separable_c (None, 16, 16, 728)  529984      middle_flow_unit_16_separable_con\n","__________________________________________________________________________________________________\n","middle_flow_unit_16_separable_c (None, 16, 16, 728)  2912        middle_flow_unit_16_separable_con\n","__________________________________________________________________________________________________\n","activation_58 (Activation)      (None, 16, 16, 728)  0           middle_flow_unit_16_separable_con\n","__________________________________________________________________________________________________\n","middle_flow_unit_16_separable_c (None, 16, 16, 728)  6552        activation_58[0][0]              \n","__________________________________________________________________________________________________\n","middle_flow_unit_16_separable_c (None, 16, 16, 728)  2912        middle_flow_unit_16_separable_con\n","__________________________________________________________________________________________________\n","middle_flow_unit_16_separable_c (None, 16, 16, 728)  529984      middle_flow_unit_16_separable_con\n","__________________________________________________________________________________________________\n","middle_flow_unit_16_separable_c (None, 16, 16, 728)  2912        middle_flow_unit_16_separable_con\n","__________________________________________________________________________________________________\n","add_18 (Add)                    (None, 16, 16, 728)  0           middle_flow_unit_16_separable_con\n","                                                                 add_17[0][0]                     \n","__________________________________________________________________________________________________\n","activation_59 (Activation)      (None, 16, 16, 728)  0           add_18[0][0]                     \n","__________________________________________________________________________________________________\n","exit_flow_block1_separable_conv (None, 16, 16, 728)  6552        activation_59[0][0]              \n","__________________________________________________________________________________________________\n","exit_flow_block1_separable_conv (None, 16, 16, 728)  2912        exit_flow_block1_separable_conv1_\n","__________________________________________________________________________________________________\n","exit_flow_block1_separable_conv (None, 16, 16, 728)  529984      exit_flow_block1_separable_conv1_\n","__________________________________________________________________________________________________\n","exit_flow_block1_separable_conv (None, 16, 16, 728)  2912        exit_flow_block1_separable_conv1_\n","__________________________________________________________________________________________________\n","activation_60 (Activation)      (None, 16, 16, 728)  0           exit_flow_block1_separable_conv1_\n","__________________________________________________________________________________________________\n","exit_flow_block1_separable_conv (None, 16, 16, 728)  6552        activation_60[0][0]              \n","__________________________________________________________________________________________________\n","exit_flow_block1_separable_conv (None, 16, 16, 728)  2912        exit_flow_block1_separable_conv2_\n","__________________________________________________________________________________________________\n","exit_flow_block1_separable_conv (None, 16, 16, 1024) 745472      exit_flow_block1_separable_conv2_\n","__________________________________________________________________________________________________\n","exit_flow_block1_separable_conv (None, 16, 16, 1024) 4096        exit_flow_block1_separable_conv2_\n","__________________________________________________________________________________________________\n","activation_61 (Activation)      (None, 16, 16, 1024) 0           exit_flow_block1_separable_conv2_\n","__________________________________________________________________________________________________\n","exit_flow_block1_separable_conv (None, 16, 16, 1024) 9216        activation_61[0][0]              \n","__________________________________________________________________________________________________\n","exit_flow_block1_separable_conv (None, 16, 16, 1024) 4096        exit_flow_block1_separable_conv3_\n","__________________________________________________________________________________________________\n","exit_flow_block1_separable_conv (None, 16, 16, 1024) 1048576     exit_flow_block1_separable_conv3_\n","__________________________________________________________________________________________________\n","exit_flow_block1_shortcut (Conv (None, 16, 16, 1024) 745472      add_18[0][0]                     \n","__________________________________________________________________________________________________\n","exit_flow_block1_separable_conv (None, 16, 16, 1024) 4096        exit_flow_block1_separable_conv3_\n","__________________________________________________________________________________________________\n","exit_flow_block1_shortcut_BN (B (None, 16, 16, 1024) 4096        exit_flow_block1_shortcut[0][0]  \n","__________________________________________________________________________________________________\n","add_19 (Add)                    (None, 16, 16, 1024) 0           exit_flow_block1_separable_conv3_\n","                                                                 exit_flow_block1_shortcut_BN[0][0\n","__________________________________________________________________________________________________\n","exit_flow_block2_separable_conv (None, 16, 16, 1024) 9216        add_19[0][0]                     \n","__________________________________________________________________________________________________\n","exit_flow_block2_separable_conv (None, 16, 16, 1024) 4096        exit_flow_block2_separable_conv1_\n","__________________________________________________________________________________________________\n","activation_62 (Activation)      (None, 16, 16, 1024) 0           exit_flow_block2_separable_conv1_\n","__________________________________________________________________________________________________\n","exit_flow_block2_separable_conv (None, 16, 16, 1536) 1572864     activation_62[0][0]              \n","__________________________________________________________________________________________________\n","exit_flow_block2_separable_conv (None, 16, 16, 1536) 6144        exit_flow_block2_separable_conv1_\n","__________________________________________________________________________________________________\n","activation_63 (Activation)      (None, 16, 16, 1536) 0           exit_flow_block2_separable_conv1_\n","__________________________________________________________________________________________________\n","exit_flow_block2_separable_conv (None, 16, 16, 1536) 13824       activation_63[0][0]              \n","__________________________________________________________________________________________________\n","exit_flow_block2_separable_conv (None, 16, 16, 1536) 6144        exit_flow_block2_separable_conv2_\n","__________________________________________________________________________________________________\n","activation_64 (Activation)      (None, 16, 16, 1536) 0           exit_flow_block2_separable_conv2_\n","__________________________________________________________________________________________________\n","exit_flow_block2_separable_conv (None, 16, 16, 1536) 2359296     activation_64[0][0]              \n","__________________________________________________________________________________________________\n","exit_flow_block2_separable_conv (None, 16, 16, 1536) 6144        exit_flow_block2_separable_conv2_\n","__________________________________________________________________________________________________\n","activation_65 (Activation)      (None, 16, 16, 1536) 0           exit_flow_block2_separable_conv2_\n","__________________________________________________________________________________________________\n","exit_flow_block2_separable_conv (None, 16, 16, 1536) 13824       activation_65[0][0]              \n","__________________________________________________________________________________________________\n","exit_flow_block2_separable_conv (None, 16, 16, 1536) 6144        exit_flow_block2_separable_conv3_\n","__________________________________________________________________________________________________\n","activation_66 (Activation)      (None, 16, 16, 1536) 0           exit_flow_block2_separable_conv3_\n","__________________________________________________________________________________________________\n","exit_flow_block2_separable_conv (None, 16, 16, 2048) 3145728     activation_66[0][0]              \n","__________________________________________________________________________________________________\n","exit_flow_block2_separable_conv (None, 16, 16, 2048) 8192        exit_flow_block2_separable_conv3_\n","__________________________________________________________________________________________________\n","activation_67 (Activation)      (None, 16, 16, 2048) 0           exit_flow_block2_separable_conv3_\n","__________________________________________________________________________________________________\n","global_average_pooling2d (Globa (None, 2048)         0           activation_67[0][0]              \n","__________________________________________________________________________________________________\n","lambda (Lambda)                 (None, 1, 2048)      0           global_average_pooling2d[0][0]   \n","__________________________________________________________________________________________________\n","aspp1_depthwise (DepthwiseConv2 (None, 16, 16, 2048) 18432       activation_67[0][0]              \n","__________________________________________________________________________________________________\n","aspp2_depthwise (DepthwiseConv2 (None, 16, 16, 2048) 18432       activation_67[0][0]              \n","__________________________________________________________________________________________________\n","aspp3_depthwise (DepthwiseConv2 (None, 16, 16, 2048) 18432       activation_67[0][0]              \n","__________________________________________________________________________________________________\n","lambda_1 (Lambda)               (None, 1, 1, 2048)   0           lambda[0][0]                     \n","__________________________________________________________________________________________________\n","aspp1_depthwise_BN (BatchNormal (None, 16, 16, 2048) 8192        aspp1_depthwise[0][0]            \n","__________________________________________________________________________________________________\n","aspp2_depthwise_BN (BatchNormal (None, 16, 16, 2048) 8192        aspp2_depthwise[0][0]            \n","__________________________________________________________________________________________________\n","aspp3_depthwise_BN (BatchNormal (None, 16, 16, 2048) 8192        aspp3_depthwise[0][0]            \n","__________________________________________________________________________________________________\n","image_pooling (Conv2D)          (None, 1, 1, 256)    524288      lambda_1[0][0]                   \n","__________________________________________________________________________________________________\n","activation_69 (Activation)      (None, 16, 16, 2048) 0           aspp1_depthwise_BN[0][0]         \n","__________________________________________________________________________________________________\n","activation_71 (Activation)      (None, 16, 16, 2048) 0           aspp2_depthwise_BN[0][0]         \n","__________________________________________________________________________________________________\n","activation_73 (Activation)      (None, 16, 16, 2048) 0           aspp3_depthwise_BN[0][0]         \n","__________________________________________________________________________________________________\n","image_pooling_BN (BatchNormaliz (None, 1, 1, 256)    1024        image_pooling[0][0]              \n","__________________________________________________________________________________________________\n","aspp0 (Conv2D)                  (None, 16, 16, 256)  524288      activation_67[0][0]              \n","__________________________________________________________________________________________________\n","aspp1_pointwise (Conv2D)        (None, 16, 16, 256)  524288      activation_69[0][0]              \n","__________________________________________________________________________________________________\n","aspp2_pointwise (Conv2D)        (None, 16, 16, 256)  524288      activation_71[0][0]              \n","__________________________________________________________________________________________________\n","aspp3_pointwise (Conv2D)        (None, 16, 16, 256)  524288      activation_73[0][0]              \n","__________________________________________________________________________________________________\n","activation_68 (Activation)      (None, 1, 1, 256)    0           image_pooling_BN[0][0]           \n","__________________________________________________________________________________________________\n","aspp0_BN (BatchNormalization)   (None, 16, 16, 256)  1024        aspp0[0][0]                      \n","__________________________________________________________________________________________________\n","aspp1_pointwise_BN (BatchNormal (None, 16, 16, 256)  1024        aspp1_pointwise[0][0]            \n","__________________________________________________________________________________________________\n","aspp2_pointwise_BN (BatchNormal (None, 16, 16, 256)  1024        aspp2_pointwise[0][0]            \n","__________________________________________________________________________________________________\n","aspp3_pointwise_BN (BatchNormal (None, 16, 16, 256)  1024        aspp3_pointwise[0][0]            \n","__________________________________________________________________________________________________\n","lambda_2 (Lambda)               (None, 16, 16, 256)  0           activation_68[0][0]              \n","__________________________________________________________________________________________________\n","aspp0_activation (Activation)   (None, 16, 16, 256)  0           aspp0_BN[0][0]                   \n","__________________________________________________________________________________________________\n","activation_70 (Activation)      (None, 16, 16, 256)  0           aspp1_pointwise_BN[0][0]         \n","__________________________________________________________________________________________________\n","activation_72 (Activation)      (None, 16, 16, 256)  0           aspp2_pointwise_BN[0][0]         \n","__________________________________________________________________________________________________\n","activation_74 (Activation)      (None, 16, 16, 256)  0           aspp3_pointwise_BN[0][0]         \n","__________________________________________________________________________________________________\n","concatenate (Concatenate)       (None, 16, 16, 1280) 0           lambda_2[0][0]                   \n","                                                                 aspp0_activation[0][0]           \n","                                                                 activation_70[0][0]              \n","                                                                 activation_72[0][0]              \n","                                                                 activation_74[0][0]              \n","__________________________________________________________________________________________________\n","concat_projection (Conv2D)      (None, 16, 16, 256)  327680      concatenate[0][0]                \n","__________________________________________________________________________________________________\n","concat_projection_BN (BatchNorm (None, 16, 16, 256)  1024        concat_projection[0][0]          \n","__________________________________________________________________________________________________\n","activation_75 (Activation)      (None, 16, 16, 256)  0           concat_projection_BN[0][0]       \n","__________________________________________________________________________________________________\n","feature_projection0 (Conv2D)    (None, 64, 64, 48)   12288       entry_flow_block2_separable_conv2\n","__________________________________________________________________________________________________\n","dropout (Dropout)               (None, 16, 16, 256)  0           activation_75[0][0]              \n","__________________________________________________________________________________________________\n","feature_projection0_BN (BatchNo (None, 64, 64, 48)   192         feature_projection0[0][0]        \n","__________________________________________________________________________________________________\n","lambda_3 (Lambda)               (None, 64, 64, 256)  0           dropout[0][0]                    \n","__________________________________________________________________________________________________\n","activation_76 (Activation)      (None, 64, 64, 48)   0           feature_projection0_BN[0][0]     \n","__________________________________________________________________________________________________\n","concatenate_1 (Concatenate)     (None, 64, 64, 304)  0           lambda_3[0][0]                   \n","                                                                 activation_76[0][0]              \n","__________________________________________________________________________________________________\n","decoder_conv0_depthwise (Depthw (None, 64, 64, 304)  2736        concatenate_1[0][0]              \n","__________________________________________________________________________________________________\n","decoder_conv0_depthwise_BN (Bat (None, 64, 64, 304)  1216        decoder_conv0_depthwise[0][0]    \n","__________________________________________________________________________________________________\n","activation_77 (Activation)      (None, 64, 64, 304)  0           decoder_conv0_depthwise_BN[0][0] \n","__________________________________________________________________________________________________\n","decoder_conv0_pointwise (Conv2D (None, 64, 64, 256)  77824       activation_77[0][0]              \n","__________________________________________________________________________________________________\n","decoder_conv0_pointwise_BN (Bat (None, 64, 64, 256)  1024        decoder_conv0_pointwise[0][0]    \n","__________________________________________________________________________________________________\n","activation_78 (Activation)      (None, 64, 64, 256)  0           decoder_conv0_pointwise_BN[0][0] \n","__________________________________________________________________________________________________\n","decoder_conv1_depthwise (Depthw (None, 64, 64, 256)  2304        activation_78[0][0]              \n","__________________________________________________________________________________________________\n","decoder_conv1_depthwise_BN (Bat (None, 64, 64, 256)  1024        decoder_conv1_depthwise[0][0]    \n","__________________________________________________________________________________________________\n","activation_79 (Activation)      (None, 64, 64, 256)  0           decoder_conv1_depthwise_BN[0][0] \n","__________________________________________________________________________________________________\n","decoder_conv1_pointwise (Conv2D (None, 64, 64, 256)  65536       activation_79[0][0]              \n","__________________________________________________________________________________________________\n","decoder_conv1_pointwise_BN (Bat (None, 64, 64, 256)  1024        decoder_conv1_pointwise[0][0]    \n","__________________________________________________________________________________________________\n","activation_80 (Activation)      (None, 64, 64, 256)  0           decoder_conv1_pointwise_BN[0][0] \n","__________________________________________________________________________________________________\n","custom_logits_semantic (Conv2D) (None, 64, 64, 1)    257         activation_80[0][0]              \n","__________________________________________________________________________________________________\n","lambda_4 (Lambda)               (None, 256, 256, 1)  0           custom_logits_semantic[0][0]     \n","__________________________________________________________________________________________________\n","activation_81 (Activation)      (None, 256, 256, 1)  0           lambda_4[0][0]                   \n","==================================================================================================\n","Total params: 41,253,073\n","Trainable params: 41,050,273\n","Non-trainable params: 202,800\n","__________________________________________________________________________________________________\n"],"name":"stdout"}]},{"cell_type":"markdown","metad
…
:0,"outputs":[{"output_type":"stream","text":["WARNING:tensorflow:From /usr/local/lib/python3.6/dist-packages/keras/optimizers.py:793: The name tf.train.Optimizer is deprecated. Please use tf.compat.v1.train.Optimizer instead.\n","\n","Model: \"model_2\"\n","__________________________________________________________________________________________________\n","Layer (type)                    Output Shape         Param #     Connected to                     \n","==================================================================================================\n","input_1 (InputLayer)            (None, 256, 256, 3)  0                                            \n","__________________________________________________________________________________________________\n","zero_padding2d_1 (ZeroPadding2D (None, 262, 262, 3)  0           input_1[0][0]                    \n","__________________________________________________________________________________________________\n","conv1 (Conv2D)                  (None, 128, 128, 64) 9472        zero_padding2d_1[0][0]           \n","__________________________________________________________________________________________________\n","bn_conv1 (BatchNormalization)   (None, 128, 128, 64) 256         conv1[0][0]                      \n","__________________________________________________________________________________________________\n","activation_1 (Activation)       (None, 128, 128, 64) 0           bn_conv1[0][0]                   \n","__________________________________________________________________________________________________\n","max_pooling2d_1 (MaxPooling2D)  (None, 63, 63, 64)   0           activation_1[0][0]               \n","__________________________________________________________________________________________________\n","res2a_branch2a (Conv2D)         (None, 63, 63, 64)   4160        max_pooling2d_1[0][0]            \n","__________________________________________________________________________________________________\n","bn2a_branch2a (BatchNormalizati (None, 63, 63, 64)   256         res2a_branch2a[0][0]             \n","__________________________________________________________________________________________________\n","activation_2 (Activation)       (None, 63, 63, 64)   0           bn2a_branch2a[0][0]              \n","__________________________________________________________________________________________________\n","res2a_branch2b (Conv2D)         (None, 63, 63, 64)   36928       activation_2[0][0]               \n","__________________________________________________________________________________________________\n","bn2a_branch2b (BatchNormalizati (None, 63, 63, 64)   256         res2a_branch2b[0][0]             \n","__________________________________________________________________________________________________\n","activation_3 (Activation)       (None, 63, 63, 64)   0           bn2a_branch2b[0][0]              \n","__________________________________________________________________________________________________\n","res2a_branch2c (Conv2D)         (None, 63, 63, 256)  16640       activation_3[0][0]               \n","__________________________________________________________________________________________________\n","res2a_branch1 (Conv2D)          (None, 63, 63, 256)  16640       max_pooling2d_1[0][0]            \n","__________________________________________________________________________________________________\n","bn2a_branch2c (BatchNormalizati (None, 63, 63, 256)  1024        res2a_branch2c[0][0]             \n","__________________________________________________________________________________________________\n","bn2a_branch1 (BatchNormalizatio (None, 63, 63, 256)  1024        res2a_branch1[0][0]              \n","__________________________________________________________________________________________________\n","add_1 (Add)                     (None, 63, 63, 256)  0           bn2a_branch2c[0][0]              \n","                                                                 bn2a_branch1[0][0]               \n","__________________________________________________________________________________________________\n","activation_4 (Activation)       (None, 63, 63, 256)  0           add_1[0][0]                      \n","__________________________________________________________________________________________________\n","res2b_branch2a (Conv2D)         (None, 63, 63, 64)   16448       activation_4[0][0]               \n","__________________________________________________________________________________________________\n","bn2b_branch2a (BatchNormalizati (None, 63, 63, 64)   256         res2b_branch2a[0][0]             \n","__________________________________________________________________________________________________\n","activation_5 (Activation)       (None, 63, 63, 64)   0           bn2b_branch2a[0][0]              \n","__________________________________________________________________________________________________\n","res2b_branch2b (Conv2D)         (None, 63, 63, 64)   36928       activation_5[0][0]               \n","__________________________________________________________________________________________________\n","bn2b_branch2b (BatchNormalizati (None, 63, 63, 64)   256         res2b_branch2b[0][0]             \n","__________________________________________________________________________________________________\n","activation_6 (Activation)       (None, 63, 63, 64)   0           bn2b_branch2b[0][0]              \n","__________________________________________________________________________________________________\n","res2b_branch2c (Conv2D)         (None, 63, 63, 256)  16640       activation_6[0][0]               \n","__________________________________________________________________________________________________\n","bn2b_branch2c (BatchNormalizati (None, 63, 63, 256)  1024        res2b_branch2c[0][0]             \n","__________________________________________________________________________________________________\n","add_2 (Add)                     (None, 63, 63, 256)  0           bn2b_branch2c[0][0]              \n","                                                                 activation_4[0][0]               \n","__________________________________________________________________________________________________\n","activation_7 (Activation)       (None, 63, 63, 256)  0           add_2[0][0]                      \n","__________________________________________________________________________________________________\n","res2c_branch2a (Conv2D)         (None, 63, 63, 64)   16448       activation_7[0][0]               \n","__________________________________________________________________________________________________\n","bn2c_branch2a (BatchNormalizati (None, 63, 63, 64)   256         res2c_branch2a[0][0]             \n","__________________________________________________________________________________________________\n","activation_8 (Activation)       (None, 63, 63, 64)   0           bn2c_branch2a[0][0]              \n","__________________________________________________________________________________________________\n","res2c_branch2b (Conv2D)         (None, 63, 63, 64)   36928       activation_8[0][0]               \n","__________________________________________________________________________________________________\n","bn2c_branch2b (BatchNormalizati (None, 63, 63, 64)   256         res2c_branch2b[0][0]             \n","__________________________________________________________________________________________________\n","activation_9 (Activation)       (None, 63, 63, 64)   0           bn2c_branch2b[0][0]              \n","__________________________________________________________________________________________________\n","res2c_branch2c (Conv2D)         (None, 63, 63, 256)  16640       activation_9[0][0]               \n","__________________________________________________________________________________________________\n","bn2c_branch2c (BatchNormalizati (None, 63, 63, 256)  1024        res2c_branch2c[0][0]             \n","__________________________________________________________________________________________________\n","add_3 (Add)                     (None, 63, 63, 256)  0           bn2c_branch2c[0][0]              \n","                                                                 activation_7[0][0]               \n","__________________________________________________________________________________________________\n","activation_10 (Activation)      (None, 63, 63, 256)  0           add_3[0][0]                      \n","__________________________________________________________________________________________________\n","res3a_branch2a (Conv2D)         (None, 32, 32, 128)  32896       activation_10[0][0]              \n","__________________________________________________________________________________________________\n","bn3a_branch2a (BatchNormalizati (None, 32, 32, 128)  512         res3a_branch2a[0][0]             \n","__________________________________________________________________________________________________\n","activation_11 (Activation)      (None, 32, 32, 128)  0           bn3a_branch2a[0][0]              \n","__________________________________________________________________________________________________\n","res3a_branch2b (Conv2D)         (None, 32, 32, 128)  147584      activation_11[0][0]              \n","__________________________________________________________________________________________________\n","bn3a_branch2b (BatchNormalizati (None, 32, 32, 128)  512         res3a_branch2b[0][0]             \n","__________________________________________________________________________________________________\n","activation_12 (Activation)      (None, 32, 32, 128)  0           bn3a_branch2b[0][0]              \n","__________________________________________________________________________________________________\n","res3a_branch2c (Conv2D)         (None, 32, 32, 512)  66048       activation_12[0][0]              \n","__________________________________________________________________________________________________\n","res3a_branch1 (Conv2D)          (None, 32, 32, 512)  131584      activation_10[0][0]              \n","__________________________________________________________________________________________________\n","bn3a_branch2c (BatchNormalizati (None, 32, 32, 512)  2048        res3a_branch2c[0][0]             \n","__________________________________________________________________________________________________\n","bn3a_branch1 (BatchNormalizatio (None, 32, 32, 512)  2048        res3a_branch1[0][0]              \n","__________________________________________________________________________________________________\n","add_4 (Add)                     (None, 32, 32, 512)  0           bn3a_branch2c[0][0]              \n","                                                                 bn3a_branch1[0][0]               \n","__________________________________________________________________________________________________\n","activation_13 (Activation)      (None, 32, 32, 512)  0           add_4[0][0]                      \n","__________________________________________________________________________________________________\n","res3b_branch2a (Conv2D)         (None, 32, 32, 128)  65664       activation_13[0][0]              \n","__________________________________________________________________________________________________\n","bn3b_branch2a (BatchNormalizati (None, 32, 32, 128)  512         res3b_branch2a[0][0]             \n","__________________________________________________________________________________________________\n","activation_14 (Activation)      (None, 32, 32, 128)  0           bn3b_branch2a[0][0]              \n","__________________________________________________________________________________________________\n","res3b_branch2b (Conv2D)         (None, 32, 32, 128)  147584      activation_14[0][0]              \n","__________________________________________________________________________________________________\n","bn3b_branch2b (BatchNormalizati (None, 32, 32, 128)  512         res3b_branch2b[0][0]             \n","__________________________________________________________________________________________________\n","activation_15 (Activation)      (None, 32, 32, 128)  0           bn3b_branch2b[0][0]              \n","__________________________________________________________________________________________________\n","res3b_branch2c (Conv2D)         (None, 32, 32, 512)  66048       activation_15[0][0]              \n","__________________________________________________________________________________________________\n","bn3b_branch2c (BatchNormalizati (None, 32, 32, 512)  2048        res3b_branch2c[0][0]             \n","__________________________________________________________________________________________________\n","add_5 (Add)                     (None, 32, 32, 512)  0           bn3b_branch2c[0][0]              \n","                                                                 activation_13[0][0]              \n","__________________________________________________________________________________________________\n","activation_16 (Activation)      (None, 32, 32, 512)  0           add_5[0][0]                      \n","__________________________________________________________________________________________________\n","res3c_branch2a (Conv2D)         (None, 32, 32, 128)  65664       activation_16[0][0]              \n","__________________________________________________________________________________________________\n","bn3c_branch2a (BatchNormalizati (None, 32, 32, 128)  512         res3c_branch2a[0][0]             \n","__________________________________________________________________________________________________\n","activation_17 (Activation)      (None, 32, 32, 128)  0           bn3c_branch2a[0][0]              \n","__________________________________________________________________________________________________\n","res3c_branch2b (Conv2D)         (None, 32, 32, 128)  147584      activation_17[0][0]              \n","__________________________________________________________________________________________________\n","bn3c_branch2b (BatchNormalizati (None, 32, 32, 128)  512         res3c_branch2b[0][0]             \n","__________________________________________________________________________________________________\n","activation_18 (Activation)      (None, 32, 32, 128)  0           bn3c_branch2b[0][0]              \n","__________________________________________________________________________________________________\n","res3c_branch2c (Conv2D)         (None, 32, 32, 512)  66048       activation_18[0][0]              \n","__________________________________________________________________________________________________\n","bn3c_branch2c (BatchNormalizati (None, 32, 32, 512)  2048        res3c_branch2c[0][0]             \n","__________________________________________________________________________________________________\n","add_6 (Add)                     (None, 32, 32, 512)  0           bn3c_branch2c[0][0]              \n","                                                                 activation_16[0][0]              \n","__________________________________________________________________________________________________\n","activation_19 (Activation)      (None, 32, 32, 512)  0           add_6[0][0]                      \n","__________________________________________________________________________________________________\n","res3d_branch2a (Conv2D)         (None, 32, 32, 128)  65664       activation_19[0][0]              \n","__________________________________________________________________________________________________\n","bn3d_branch2a (BatchNormalizati (None, 32, 32, 128)  512         res3d_branch2a[0][0]             \n","__________________________________________________________________________________________________\n","activation_20 (Activation)      (None, 32, 32, 128)  0           bn3d_branch2a[0][0]              \n","__________________________________________________________________________________________________\n","res3d_branch2b (Conv2D)         (None, 32, 32, 128)  147584      activation_20[0][0]              \n","__________________________________________________________________________________________________\n","bn3d_branch2b (BatchNormalizati (None, 32, 32, 128)  512         res3d_branch2b[0][0]             \n","__________________________________________________________________________________________________\n","activation_21 (Activation)      (None, 32, 32, 128)  0           bn3d_branch2b[0][0]              \n","__________________________________________________________________________________________________\n","res3d_branch2c (Conv2D)         (None, 32, 32, 512)  66048       activation_21[0][0]              \n","__________________________________________________________________________________________________\n","bn3d_branch2c (BatchNormalizati (None, 32, 32, 512)  2048        res3d_branch2c[0][0]             \n","__________________________________________________________________________________________________\n","add_7 (Add)                     (None, 32, 32, 512)  0           bn3d_branch2c[0][0]              \n","                                                                 activation_19[0][0]              \n","__________________________________________________________________________________________________\n","activation_22 (Activation)      (None, 32, 32, 512)  0           add_7[0][0]                      \n","__________________________________________________________________________________________________\n","res4a_branch2a (Conv2D)         (None, 16, 16, 256)  131328      activation_22[0][0]              \n","__________________________________________________________________________________________________\n","bn4a_branch2a (BatchNormalizati (None, 16, 16, 256)  1024        res4a_branch2a[0][0]             \n","__________________________________________________________________________________________________\n","activation_23 (Activation)      (None, 16, 16, 256)  0           bn4a_branch2a[0][0]              \n","__________________________________________________________________________________________________\n","res4a_branch2b (Conv2D)         (None, 16, 16, 256)  590080      activation_23[0][0]              \n","__________________________________________________________________________________________________\n","bn4a_branch2b (BatchNormalizati (None, 16, 16, 256)  1024        res4a_branch2b[0][0]             \n","__________________________________________________________________________________________________\n","activation_24 (Activation)      (None, 16, 16, 256)  0           bn4a_branch2b[0][0]              \n","__________________________________________________________________________________________________\n","res4a_branch2c (Conv2D)         (None, 16, 16, 1024) 263168      activation_24[0][0]              \n","__________________________________________________________________________________________________\n","res4a_branch1 (Conv2D)          (None, 16, 16, 1024) 525312      activation_22[0][0]              \n","__________________________________________________________________________________________________\n","bn4a_branch2c (BatchNormalizati (None, 16, 16, 1024) 4096        res4a_branch2c[0][0]             \n","__________________________________________________________________________________________________\n","bn4a_branch1 (BatchNormalizatio (None, 16, 16, 1024) 4096        res4a_branch1[0][0]              \n","__________________________________________________________________________________________________\n","add_8 (Add)                     (None, 16, 16, 1024) 0           bn4a_branch2c[0][0]              \n","                                                                 bn4a_branch1[0][0]               \n","__________________________________________________________________________________________________\n","activation_25 (Activation)      (None, 16, 16, 1024) 0           add_8[0][0]                      \n","__________________________________________________________________________________________________\n","res4b_branch2a (Conv2D)         (None, 16, 16, 256)  262400      activation_25[0][0]              \n","__________________________________________________________________________________________________\n","bn4b_branch2a (BatchNormalizati (None, 16, 16, 256)  1024        res4b_branch2a[0][0]             \n","__________________________________________________________________________________________________\n","activation_26 (Activation)      (None, 16, 16, 256)  0           bn4b_branch2a[0][0]              \n","__________________________________________________________________________________________________\n","res4b_branch2b (Conv2D)         (None, 16, 16, 256)  590080      activation_26[0][0]              \n","__________________________________________________________________________________________________\n","bn4b_branch2b (BatchNormalizati (None, 16, 16, 256)  1024        res4b_branch2b[0][0]             \n","__________________________________________________________________________________________________\n","activation_27 (Activation)      (None, 16, 16, 256)  0           bn4b_branch2b[0][0]              \n","__________________________________________________________________________________________________\n","res4b_branch2c (Conv2D)         (None, 16, 16, 1024) 263168      activation_27[0][0]              \n","__________________________________________________________________________________________________\n","bn4b_branch2c (BatchNormalizati (None, 16, 16, 1024) 4096        res4b_branch2c[0][0]             \n","__________________________________________________________________________________________________\n","add_9 (Add)                     (None, 16, 16, 1024) 0           bn4b_branch2c[0][0]              \n","                                                                 activation_25[0][0]              \n","__________________________________________________________________________________________________\n","activation_28 (Activation)      (None, 16, 16, 1024) 0           add_9[0][0]                      \n","__________________________________________________________________________________________________\n","res4c_branch2a (Conv2D)         (None, 16, 16, 256)  262400      activation_28[0][0]              \n","__________________________________________________________________________________________________\n","bn4c_branch2a (BatchNormalizati (None, 16, 16, 256)  1024        res4c_branch2a[0][0]             \n","__________________________________________________________________________________________________\n","activation_29 (Activation)      (None, 16, 16, 256)  0           bn4c_branch2a[0][0]              \n","__________________________________________________________________________________________________\n","res4c_branch2b (Conv2D)         (None, 16, 16, 256)  590080      activation_29[0][0]              \n","__________________________________________________________________________________________________\n","bn4c_branch2b (BatchNormalizati (None, 16, 16, 256)  1024        res4c_branch2b[0][0]             \n","__________________________________________________________________________________________________\n","activation_30 (Activation)      (None, 16, 16, 256)  0           bn4c_branch2b[0][0]              \n","__________________________________________________________________________________________________\n","res4c_branch2c (Conv2D)         (None, 16, 16, 1024) 263168      activation_30[0][0]              \n","__________________________________________________________________________________________________\n","bn4c_branch2c (BatchNormalizati (None, 16, 16, 1024) 4096        res4c_branch2c[0][0]             \n","__________________________________________________________________________________________________\n","add_10 (Add)                    (None, 16, 16, 1024) 0           bn4c_branch2c[0][0]              \n","                                                                 activation_28[0][0]              \n","__________________________________________________________________________________________________\n","activation_31 (Activation)      (None, 16, 16, 1024) 0           add_10[0][0]                     \n","__________________________________________________________________________________________________\n","res4d_branch2a (Conv2D)         (None, 16, 16, 256)  262400      activation_31[0][0]              \n","__________________________________________________________________________________________________\n","bn4d_branch2a (BatchNormalizati (None, 16, 16, 256)  1024        res4d_branch2a[0][0]             \n","__________________________________________________________________________________________________\n","activation_32 (Activation)      (None, 16, 16, 256)  0           bn4d_branch2a[0][0]              \n","__________________________________________________________________________________________________\n","res4d_branch2b (Conv2D)         (None, 16, 16, 256)  590080      activation_32[0][0]              \n","__________________________________________________________________________________________________\n","bn4d_branch2b (BatchNormalizati (None, 16, 16, 256)  1024        res4d_branch2b[0][0]             \n","__________________________________________________________________________________________________\n","activation_33 (Activation)      (None, 16, 16, 256)  0           bn4d_branch2b[0][0]              \n","__________________________________________________________________________________________________\n","res4d_branch2c (Conv2D)         (None, 16, 16, 1024) 263168      activation_33[0][0]              \n","__________________________________________________________________________________________________\n","bn4d_branch2c (BatchNormalizati (None, 16, 16, 1024) 4096        res4d_branch2c[0][0]             \n","__________________________________________________________________________________________________\n","add_11 (Add)                    (None, 16, 16, 1024) 0           bn4d_branch2c[0][0]              \n","                                                                 activation_31[0][0]              \n","__________________________________________________________________________________________________\n","activation_34 (Activation)      (None, 16, 16, 1024) 0           add_11[0][0]                     \n","__________________________________________________________________________________________________\n","res4e_branch2a (Conv2D)         (None, 16, 16, 256)  262400      activation_34[0][0]              \n","__________________________________________________________________________________________________\n","bn4e_branch2a (BatchNormalizati (None, 16, 16, 256)  1024        res4e_branch2a[0][0]             \n","__________________________________________________________________________________________________\n","activation_35 (Activation)      (None, 16, 16, 256)  0           bn4e_branch2a[0][0]              \n","__________________________________________________________________________________________________\n","res4e_branch2b (Conv2D)         (None, 16, 16, 256)  590080      activation_35[0][0]              \n","__________________________________________________________________________________________________\n","bn4e_branch2b (BatchNormalizati (None, 16, 16, 256)  1024        res4e_branch2b[0][0]             \n","__________________________________________________________________________________________________\n","activation_36 (Activation)      (None, 16, 16, 256)  0           bn4e_branch2b[0][0]              \n","__________________________________________________________________________________________________\n","res4e_branch2c (Conv2D)         (None, 16, 16, 1024) 263168      activation_36[0][0]              \n","__________________________________________________________________________________________________\n","bn4e_branch2c (BatchNormalizati (None, 16, 16, 1024) 4096        res4e_branch2c[0][0]             \n","__________________________________________________________________________________________________\n","add_12 (Add)                    (None, 16, 16, 1024) 0           bn4e_branch2c[0][0]              \n","                                                                 activation_34[0][0]              \n","__________________________________________________________________________________________________\n","activation_37 (Activation)      (None, 16, 16, 1024) 0           add_12[0][0]                     \n","__________________________________________________________________________________________________\n","res4f_branch2a (Conv2D)         (None, 16, 16, 256)  262400      activation_37[0][0]              \n","__________________________________________________________________________________________________\n","bn4f_branch2a (BatchNormalizati (None, 16, 16, 256)  1024        res4f_branch2a[0][0]             \n","__________________________________________________________________________________________________\n","activation_38 (Activation)      (None, 16, 16, 256)  0           bn4f_branch2a[0][0]              \n","__________________________________________________________________________________________________\n","res4f_branch2b (Conv2D)         (None, 16, 16, 256)  590080      activation_38[0][0]              \n","__________________________________________________________________________________________________\n","bn4f_branch2b (BatchNormalizati (None, 16, 16, 256)  1024        res4f_branch2b[0][0]             \n","__________________________________________________________________________________________________\n","activation_39 (Activation)      (None, 16, 16, 256)  0           bn4f_branch2b[0][0]              \n","__________________________________________________________________________________________________\n","res4f_branch2c (Conv2D)         (None, 16, 16, 1024) 263168      activation_39[0][0]              \n","__________________________________________________________________________________________________\n","bn4f_branch2c (BatchNormalizati (None, 16, 16, 1024) 4096        res4f_branch2c[0][0]             \n","__________________________________________________________________________________________________\n","add_13 (Add)                    (None, 16, 16, 1024) 0           bn4f_branch2c[0][0]              \n","                                                                 activation_37[0][0]              \n","__________________________________________________________________________________________________\n","activation_40 (Activation)      (None, 16, 16, 1024) 0           add_13[0][0]                     \n","__________________________________________________________________________________________________\n","res5a_branch2a (Conv2D)         (None, 8, 8, 512)    524800      activation_40[0][0]              \n","__________________________________________________________________________________________________\n","bn5a_branch2a (BatchNormalizati (None, 8, 8, 512)    2048        res5a_branch2a[0][0]             \n","__________________________________________________________________________________________________\n","activation_41 (Activation)      (None, 8, 8, 512)    0           bn5a_branch2a[0][0]              \n","__________________________________________________________________________________________________\n","res5a_branch2b (Conv2D)         (None, 8, 8, 512)    2359808     activation_41[0][0]              \n","__________________________________________________________________________________________________\n","bn5a_branch2b (BatchNormalizati (None, 8, 8, 512)    2048        res5a_branch2b[0][0]             \n","__________________________________________________________________________________________________\n","activation_42 (Activation)      (None, 8, 8, 512)    0           bn5a_branch2b[0][0]              \n","__________________________________________________________________________________________________\n","res5a_branch2c (Conv2D)         (None, 8, 8, 2048)   1050624     activation_42[0][0]              \n","__________________________________________________________________________________________________\n","res5a_branch1 (Conv2D)          (None, 8, 8, 2048)   2099200     activation_40[0][0]              \n","__________________________________________________________________________________________________\n","bn5a_branch2c (BatchNormalizati (None, 8, 8, 2048)   8192        res5a_branch2c[0][0]             \n","__________________________________________________________________________________________________\n","bn5a_branch1 (BatchNormalizatio (None, 8, 8, 2048)   8192        res5a_branch1[0][0]              \n","__________________________________________________________________________________________________\n","add_14 (Add)                    (None, 8, 8, 2048)   0           bn5a_branch2c[0][0]              \n","                                                                 bn5a_branch1[0][0]               \n","__________________________________________________________________________________________________\n","activation_43 (Activation)      (None, 8, 8, 2048)   0           add_14[0][0]                     \n","__________________________________________________________________________________________________\n","res5b_branch2a (Conv2D)         (None, 8, 8, 512)    1049088     activation_43[0][0]              \n","__________________________________________________________________________________________________\n","bn5b_branch2a (BatchNormalizati (None, 8, 8, 512)    2048        res5b_branch2a[0][0]             \n","__________________________________________________________________________________________________\n","activation_44 (Activation)      (None, 8, 8, 512)    0           bn5b_branch2a[0][0]              \n","__________________________________________________________________________________________________\n","res5b_branch2b (Conv2D)         (None, 8, 8, 512)    2359808     activation_44[0][0]              \n","__________________________________________________________________________________________________\n","bn5b_branch2b (BatchNormalizati (None, 8, 8, 512)    2048        res5b_branch2b[0][0]             \n","__________________________________________________________________________________________________\n","activation_45 (Activation)      (None, 8, 8, 512)    0           bn5b_branch2b[0][0]              \n","__________________________________________________________________________________________________\n","res5b_branch2c (Conv2D)         (None, 8, 8, 2048)   1050624     activation_45[0][0]              \n","__________________________________________________________________________________________________\n","bn5b_branch2c (BatchNormalizati (None, 8, 8, 2048)   8192        res5b_branch2c[0][0]             \n","__________________________________________________________________________________________________\n","add_15 (Add)                    (None, 8, 8, 2048)   0           bn5b_branch2c[0][0]              \n","                                                                 activation_43[0][0]              \n","__________________________________________________________________________________________________\n","activation_46 (Activation)      (None, 8, 8, 2048)   0           add_15[0][0]                     \n","__________________________________________________________________________________________________\n","res5c_branch2a (Conv2D)         (None, 8, 8, 512)    1049088     activation_46[0][0]              \n","__________________________________________________________________________________________________\n","bn5c_branch2a (BatchNormalizati (None, 8, 8, 512)    2048        res5c_branch2a[0][0]             \n","__________________________________________________________________________________________________\n","activation_47 (Activation)      (None, 8, 8, 512)    0           bn5c_branch2a[0][0]              \n","__________________________________________________________________________________________________\n","res5c_branch2b (Conv2D)         (None, 8, 8, 512)    2359808     activation_47[0][0]              \n","__________________________________________________________________________________________________\n","bn5c_branch2b (BatchNormalizati (None, 8, 8, 512)    2048        res5c_branch2b[0][0]             \n","__________________________________________________________________________________________________\n","activation_48 (Activation)      (None, 8, 8, 512)    0           bn5c_branch2b[0][0]              \n","__________________________________________________________________________________________________\n","res5c_branch2c (Conv2D)         (None, 8, 8, 2048)   1050624     activation_48[0][0]              \n","__________________________________________________________________________________________________\n","bn5c_branch2c (BatchNormalizati (None, 8, 8, 2048)   8192        res5c_branch2c[0][0]             \n","__________________________________________________________________________________________________\n","add_16 (Add)                    (None, 8, 8, 2048)   0           bn5c_branch2c[0][0]              \n","                                                                 activation_46[0][0]              \n","__________________________________________________________________________________________________\n","activation_49 (Activation)      (None, 8, 8, 2048)   0           add_16[0][0]                     \n","__________________________________________________________________________________________________\n","zero_padding2d_3 (ZeroPadding2D (None, 10, 10, 2048) 0           activation_49[0][0]              \n","__________________________________________________________________________________________________\n","conv2d_1 (Conv2D)               (None, 8, 8, 512)    9437696     zero_padding2d_3[0][0]           \n","__________________________________________________________________________________________________\n","batch_normalization_1 (BatchNor (None, 8, 8, 512)    2048        conv2d_1[0][0]                   \n","__________________________________________________________________________________________________\n","up_sampling2d_1 (UpSampling2D)  (None, 16, 16, 512)  0           batch_normalization_1[0][0]      \n","__________________________________________________________________________________________________\n","concatenate_1 (Concatenate)     (None, 16, 16, 1536) 0           up_sampling2d_1[0][0]            \n","                                                                 activation_40[0][0]              \n","__________________________________________________________________________________________________\n","dropout_1 (Dropout)             (None, 16, 16, 1536) 0           concatenate_1[0][0]              \n","__________________________________________________________________________________________________\n","zero_padding2d_4 (ZeroPadding2D (None, 18, 18, 1536) 0           dropout_1[0][0]                  \n","__________________________________________________________________________________________________\n","conv2d_2 (Conv2D)               (None, 16, 16, 256)  3539200     zero_padding2d_4[0][0]           \n","__________________________________________________________________________________________________\n","batch_normalization_2 (BatchNor (None, 16, 16, 256)  1024        conv2d_2[0][0]                   \n","__________________________________________________________________________________________________\n","up_sampling2d_2 (UpSampling2D)  (None, 32, 32, 256)  0           batch_normalization_2[0][0]      \n","__________________________________________________________________________________________________\n","concatenate_2 (Concatenate)     (None, 32, 32, 768)  0           up_sampling2d_2[0][0]            \n","                                                                 activation_22[0][0]              \n","__________________________________________________________________________________________________\n","dropout_2 (Dropout)             (None, 32, 32, 768)  0           concatenate_2[0][0]              \n","__________________________________________________________________________________________________\n","zero_padding2d_5 (ZeroPadding2D (None, 34, 34, 768)  0           dropout_2[0][0]                  \n","__________________________________________________________________________________________________\n","conv2d_3 (Conv2D)               (None, 32, 32, 128)  884864      zero_padding2d_5[0][0]           \n","__________________________________________________________________________________________________\n","batch_normalization_3 (BatchNor (None, 32, 32, 128)  512         conv2d_3[0][0]                   \n","__________________________________________________________________________________________________\n","zero_padding2d_2 (ZeroPadding2D (None, 65, 65, 256)  0           activation_10[0][0]              \n","__________________________________________________________________________________________________\n","up_sampling2d_3 (UpSampling2D)  (None, 64, 64, 128)  0           batch_normalization_3[0][0]      \n","__________________________________________________________________________________________________\n","lambda_1 (Lambda)               (None, 64, 64, 256)  0           zero_padding2d_2[0][0]           \n","__________________________________________________________________________________________________\n","concatenate_3 (Concatenate)     (None, 64, 64, 384)  0           up_sampling2d_3[0][0]            \n","                                                                 lambda_1[0][0]                   \n","__________________________________________________________________________________________________\n","dropout_3 (Dropout)             (None, 64, 64, 384)  0           concatenate_3[0][0]              \n","__________________________________________________________________________________________________\n","zero_padding2d_6 (ZeroPadding2D (None, 66, 66, 384)  0           dropout_3[0][0]                  \n","__________________________________________________________________________________________________\n","conv2d_4 (Conv2D)               (None, 64, 64, 64)   221248      zero_padding2d_6[0][0]           \n","__________________________________________________________________________________________________\n","batch_normalization_4 (BatchNor (None, 64, 64, 64)   256         conv2d_4[0][0]                   \n","__________________________________________________________________________________________________\n","up_sampling2d_4 (UpSampling2D)  (None, 128, 128, 64) 0           batch_normalization_4[0][0]      \n","__________________________________________________________________________________________________\n","concatenate_4 (Concatenate)     (None, 128, 128, 128 0           up_sampling2d_4[0][0]            \n","                                                                 conv1[0][0]                      \n","__________________________________________________________________________________________________\n","zero_padding2d_7 (ZeroPadding2D (None, 130, 130, 128 0           concatenate_4[0][0]              \n","__________________________________________________________________________________________________\n","conv2d_5 (Conv2D)               (None, 128, 128, 64) 73792       zero_padding2d_7[0][0]           \n","__________________________________________________________________________________________________\n","batch_normalization_5 (BatchNor (None, 128, 128, 64) 256         conv2d_5[0][0]                   \n","__________________________________________________________________________________________________\n","up_sampling2d_5 (UpSampling2D)  (None, 256, 256, 64) 0           batch_normalization_5[0][0]      \n","__________________________________________________________________________________________________\n","zero_padding2d_8 (ZeroPadding2D (None, 258, 258, 64) 0           up_sampling2d_5[0][0]            \n","__________________________________________________________________________________________________\n","dropout_4 (Dropout)             (None, 258, 258, 64) 0           zero_padding2d_8[0][0]           \n","__________________________________________________________________________________________________\n","conv2d_6 (Conv2D)               (None, 256, 256, 64) 36928       dropout_4[0][0]                  \n","__________________________________________________________________________________________________\n","batch_normalization_6 (BatchNor (None, 256, 256, 64) 256         conv2d_6[0][0]                   \n","__________________________________________________________________________________________________\n","conv2d_7 (Conv2D)               (None, 256, 256, 1)  577         batch_normalization_6[0][0]      \n","__________________________________________________________________________________________________\n","activation_50 (Activation)      (None, 256, 256, 1)  0           conv2d_7[0][0]                   \n","==================================================================================================\n","Total params: 37,786,369\n","Trainable params: 37,731,073\n","Non-trainable params: 55,296\n","__________________________________________________________________________________________________\n"],"name":"stdout"}]},{"cell_type":"markdown","metada
…
:0,"outputs":[{"output_type":"stream","text":["WARNING:tensorflow:From /usr/local/lib/python3.6/dist-packages/keras/optimizers.py:793: The name tf.train.Optimizer is deprecated. Please use tf.compat.v1.train.Optimizer instead.\n","\n","Model: \"model_2\"\n","__________________________________________________________________________________________________\n","Layer (type)                    Output Shape         Param #     Connected to                     \n","==================================================================================================\n","input_1 (InputLayer)            (None, 256, 256, 3)  0                                            \n","__________________________________________________________________________________________________\n","block1_conv1 (Conv2D)           (None, 256, 256, 64) 1792        input_1[0][0]                    \n","__________________________________________________________________________________________________\n","block1_conv2 (Conv2D)           (None, 256, 256, 64) 36928       block1_conv1[0][0]               \n","__________________________________________________________________________________________________\n","block1_pool (MaxPooling2D)      (None, 128, 128, 64) 0           block1_conv2[0][0]               \n","__________________________________________________________________________________________________\n","block2_conv1 (Conv2D)           (None, 128, 128, 128 73856       block1_pool[0][0]                \n","__________________________________________________________________________________________________\n","block2_conv2 (Conv2D)           (None, 128, 128, 128 147584      block2_conv1[0][0]               \n","__________________________________________________________________________________________________\n","block2_pool (MaxPooling2D)      (None, 64, 64, 128)  0           block2_conv2[0][0]               \n","__________________________________________________________________________________________________\n","block3_conv1 (Conv2D)           (None, 64, 64, 256)  295168      block2_pool[0][0]                \n","__________________________________________________________________________________________________\n","block3_conv2 (Conv2D)           (None, 64, 64, 256)  590080      block3_conv1[0][0]               \n","__________________________________________________________________________________________________\n","block3_conv3 (Conv2D)           (None, 64, 64, 256)  590080      block3_conv2[0][0]               \n","__________________________________________________________________________________________________\n","block3_pool (MaxPooling2D)      (None, 32, 32, 256)  0           block3_conv3[0][0]               \n","__________________________________________________________________________________________________\n","block4_conv1 (Conv2D)           (None, 32, 32, 512)  1180160     block3_pool[0][0]                \n","__________________________________________________________________________________________________\n","block4_conv2 (Conv2D)           (None, 32, 32, 512)  2359808     block4_conv1[0][0]               \n","__________________________________________________________________________________________________\n","block4_conv3 (Conv2D)           (None, 32, 32, 512)  2359808     block4_conv2[0][0]               \n","__________________________________________________________________________________________________\n","block4_pool (MaxPooling2D)      (None, 16, 16, 512)  0           block4_conv3[0][0]               \n","__________________________________________________________________________________________________\n","block5_conv1 (Conv2D)           (None, 16, 16, 512)  2359808     block4_pool[0][0]                \n","__________________________________________________________________________________________________\n","block5_conv2 (Conv2D)           (None, 16, 16, 512)  2359808     block5_conv1[0][0]               \n","__________________________________________________________________________________________________\n","block5_conv3 (Conv2D)           (None, 16, 16, 512)  2359808     block5_conv2[0][0]               \n","__________________________________________________________________________________________________\n","block5_pool (MaxPooling2D)      (None, 8, 8, 512)    0           block5_conv3[0][0]               \n","__________________________________________________________________________________________________\n","zero_padding2d_1 (ZeroPadding2D (None, 10, 10, 512)  0           block5_pool[0][0]                \n","__________________________________________________________________________________________________\n","conv2d_1 (Conv2D)               (None, 8, 8, 512)    2359808     zero_padding2d_1[0][0]           \n","__________________________________________________________________________________________________\n","batch_normalization_1 (BatchNor (None, 8, 8, 512)    2048        conv2d_1[0][0]                   \n","__________________________________________________________________________________________________\n","up_sampling2d_1 (UpSampling2D)  (None, 16, 16, 512)  0           batch_normalization_1[0][0]      \n","__________________________________________________________________________________________________\n","concatenate_1 (Concatenate)     (None, 16, 16, 1024) 0           up_sampling2d_1[0][0]            \n","                                                                 block4_pool[0][0]                \n","__________________________________________________________________________________________________\n","zero_padding2d_2 (ZeroPadding2D (None, 18, 18, 1024) 0           concatenate_1[0][0]              \n","__________________________________________________________________________________________________\n","conv2d_2 (Conv2D)               (None, 16, 16, 256)  2359552     zero_padding2d_2[0][0]           \n","__________________________________________________________________________________________________\n","batch_normalization_2 (BatchNor (None, 16, 16, 256)  1024        conv2d_2[0][0]                   \n","__________________________________________________________________________________________________\n","up_sampling2d_2 (UpSampling2D)  (None, 32, 32, 256)  0           batch_normalization_2[0][0]      \n","__________________________________________________________________________________________________\n","concatenate_2 (Concatenate)     (None, 32, 32, 512)  0           up_sampling2d_2[0][0]            \n","                                                                 block3_pool[0][0]                \n","__________________________________________________________________________________________________\n","zero_padding2d_3 (ZeroPadding2D (None, 34, 34, 512)  0           concatenate_2[0][0]              \n","__________________________________________________________________________________________________\n","conv2d_3 (Conv2D)               (None, 32, 32, 128)  589952      zero_padding2d_3[0][0]           \n","__________________________________________________________________________________________________\n","batch_normalization_3 (BatchNor (None, 32, 32, 128)  512         conv2d_3[0][0]                   \n","__________________________________________________________________________________________________\n","up_sampling2d_3 (UpSampling2D)  (None, 64, 64, 128)  0           batch_normalization_3[0][0]      \n","__________________________________________________________________________________________________\n","concatenate_3 (Concatenate)     (None, 64, 64, 256)  0           up_sampling2d_3[0][0]            \n","                                                                 block2_pool[0][0]                \n","__________________________________________________________________________________________________\n","zero_padding2d_4 (ZeroPadding2D (None, 66, 66, 256)  0           concatenate_3[0][0]              \n","__________________________________________________________________________________________________\n","conv2d_4 (Conv2D)               (None, 64, 64, 64)   147520      zero_padding2d_4[0][0]           \n","__________________________________________________________________________________________________\n","batch_normalization_4 (BatchNor (None, 64, 64, 64)   256         conv2d_4[0][0]                   \n","__________________________________________________________________________________________________\n","up_sampling2d_4 (UpSampling2D)  (None, 128, 128, 64) 0           batch_normalization_4[0][0]      \n","__________________________________________________________________________________________________\n","concatenate_4 (Concatenate)     (None, 128, 128, 128 0           up_sampling2d_4[0][0]            \n","                                                                 block1_pool[0][0]                \n","__________________________________________________________________________________________________\n","zero_padding2d_5 (ZeroPadding2D (None, 130, 130, 128 0           concatenate_4[0][0]              \n","__________________________________________________________________________________________________\n","conv2d_5 (Conv2D)               (None, 128, 128, 64) 73792       zero_padding2d_5[0][0]           \n","__________________________________________________________________________________________________\n","batch_normalization_5 (BatchNor (None, 128, 128, 64) 256         conv2d_5[0][0]                   \n","__________________________________________________________________________________________________\n","up_sampling2d_5 (UpSampling2D)  (None, 256, 256, 64) 0           batch_normalization_5[0][0]      \n","__________________________________________________________________________________________________\n","concatenate_5 (Concatenate)     (None, 256, 256, 128 0           up_sampling2d_5[0][0]            \n","                                                                 block1_conv1[0][0]               \n","__________________________________________________________________________________________________\n","zero_padding2d_6 (ZeroPadding2D (None, 258, 258, 128 0           concatenate_5[0][0]              \n","__________________________________________________________________________________________________\n","conv2d_6 (Conv2D)               (None, 256, 256, 64) 73792       zero_padding2d_6[0][0]           \n","__________________________________________________________________________________________________\n","batch_normalization_6 (BatchNor (None, 256, 256, 64) 256         conv2d_6[0][0]                   \n","__________________________________________________________________________________________________\n","conv2d_7 (Conv2D)               (None, 256, 256, 1)  577         batch_normalization_6[0][0]      \n","__________________________________________________________________________________________________\n","activation_1 (Activation)       (None, 256, 256, 1)  0           conv2d_7[0][0]                   \n","==================================================================================================\n","Total params: 20,324,033\n","Trainable params: 20,321,857\n","Non-trainable params: 2,176\n","__________________________________________________________________________________________________\n"],"name":"stdout"}]},{"cell_type":"markdown","metadat
…
output_type":"stream","text":["WARNING:tensorflow:From /usr/local/lib/python3.6/dist-packages/keras/backend/tensorflow_backend.py:4479: The name tf.truncated_normal is deprecated. Please use tf.random.truncated_normal instead.\n","\n","Model: \"model_3\"\n","__________________________________________________________________________________________________\n","Layer (type)                    Output Shape         Param #     Connected to                     \n","==================================================================================================\n","input_2 (InputLayer)            (None, 256, 256, 3)  0                                            \n","__________________________________________________________________________________________________\n","conv2d_8 (Conv2D)               (None, 256, 256, 64) 1792        input_2[0][0]                    \n","__________________________________________________________________________________________________\n","batch_normalization_7 (BatchNor (None, 256, 256, 64) 256         conv2d_8[0][0]                   \n","__________________________________________________________________________________________________\n","conv2d_9 (Conv2D)               (None, 256, 256, 64) 36928       batch_normalization_7[0][0]      \n","__________________________________________________________________________________________________\n","batch_normalization_8 (BatchNor (None, 256, 256, 64) 256         conv2d_9[0][0]                   \n","__________________________________________________________________________________________________\n","conv2d_10 (Conv2D)              (None, 256, 256, 64) 36928       batch_normalization_8[0][0]      \n","__________________________________________________________________________________________________\n","max_pooling2d_1 (MaxPooling2D)  (None, 128, 128, 64) 0           conv2d_10[0][0]                  \n","__________________________________________________________________________________________________\n","batch_normalization_9 (BatchNor (None, 128, 128, 64) 256         max_pooling2d_1[0][0]            \n","__________________________________________________________________________________________________\n","conv2d_11 (Conv2D)              (None, 128, 128, 64) 36928       batch_normalization_9[0][0]      \n","__________________________________________________________________________________________________\n","batch_normalization_10 (BatchNo (None, 128, 128, 64) 256         conv2d_11[0][0]                  \n","__________________________________________________________________________________________________\n","conv2d_12 (Conv2D)              (None, 128, 128, 64) 36928       batch_normalization_10[0][0]     \n","__________________________________________________________________________________________________\n","batch_normalization_11 (BatchNo (None, 128, 128, 64) 256         conv2d_12[0][0]                  \n","__________________________________________________________________________________________________\n","conv2d_13 (Conv2D)              (None, 128, 128, 64) 36928       batch_normalization_11[0][0]     \n","__________________________________________________________________________________________________\n","max_pooling2d_2 (MaxPooling2D)  (None, 64, 64, 64)   0           conv2d_13[0][0]                  \n","__________________________________________________________________________________________________\n","batch_normalization_12 (BatchNo (None, 64, 64, 64)   256         max_pooling2d_2[0][0]            \n","__________________________________________________________________________________________________\n","conv2d_14 (Conv2D)              (None, 64, 64, 64)   36928       batch_normalization_12[0][0]     \n","__________________________________________________________________________________________________\n","batch_normalization_13 (BatchNo (None, 64, 64, 64)   256         conv2d_14[0][0]                  \n","__________________________________________________________________________________________________\n","conv2d_15 (Conv2D)              (None, 64, 64, 64)   36928       batch_normalization_13[0][0]     \n","__________________________________________________________________________________________________\n","batch_normalization_14 (BatchNo (None, 64, 64, 64)   256         conv2d_15[0][0]                  \n","__________________________________________________________________________________________________\n","conv2d_16 (Conv2D)              (None, 64, 64, 64)   36928       batch_normalization_14[0][0]     \n","__________________________________________________________________________________________________\n","max_pooling2d_3 (MaxPooling2D)  (None, 32, 32, 64)   0           conv2d_16[0][0]                  \n","__________________________________________________________________________________________________\n","batch_normalization_15 (BatchNo (None, 32, 32, 64)   256         max_pooling2d_3[0][0]            \n","__________________________________________________________________________________________________\n","conv2d_17 (Conv2D)              (None, 32, 32, 64)   36928       batch_normalization_15[0][0]     \n","__________________________________________________________________________________________________\n","batch_normalization_16 (BatchNo (None, 32, 32, 64)   256         conv2d_17[0][0]                  \n","__________________________________________________________________________________________________\n","conv2d_18 (Conv2D)              (None, 32, 32, 64)   36928       batch_normalization_16[0][0]     \n","__________________________________________________________________________________________________\n","batch_normalization_17 (BatchNo (None, 32, 32, 64)   256         conv2d_18[0][0]                  \n","__________________________________________________________________________________________________\n","conv2d_19 (Conv2D)              (None, 32, 32, 64)   36928       batch_normalization_17[0][0]     \n","__________________________________________________________________________________________________\n","max_pooling2d_4 (MaxPooling2D)  (None, 16, 16, 64)   0           conv2d_19[0][0]                  \n","__________________________________________________________________________________________________\n","batch_normalization_18 (BatchNo (None, 16, 16, 64)   256         max_pooling2d_4[0][0]            \n","__________________________________________________________________________________________________\n","conv2d_20 (Conv2D)              (None, 16, 16, 64)   36928       batch_normalization_18[0][0]     \n","__________________________________________________________________________________________________\n","batch_normalization_19 (BatchNo (None, 16, 16, 64)   256         conv2d_20[0][0]                  \n","__________________________________________________________________________________________________\n","conv2d_21 (Conv2D)              (None, 16, 16, 64)   36928       batch_normalization_19[0][0]     \n","__________________________________________________________________________________________________\n","batch_normalization_20 (BatchNo (None, 16, 16, 64)   256         conv2d_21[0][0]                  \n","__________________________________________________________________________________________________\n","conv2d_22 (Conv2D)              (None, 16, 16, 64)   36928       batch_normalization_20[0][0]     \n","__________________________________________________________________________________________________\n","max_pooling2d_5 (MaxPooling2D)  (None, 8, 8, 64)     0           conv2d_22[0][0]                  \n","__________________________________________________________________________________________________\n","batch_normalization_21 (BatchNo (None, 8, 8, 64)     256         max_pooling2d_5[0][0]            \n","__________________________________________________________________________________________________\n","conv2d_23 (Conv2D)              (None, 8, 8, 64)     36928       batch_normalization_21[0][0]     \n","__________________________________________________________________________________________________\n","batch_normalization_22 (BatchNo (None, 8, 8, 64)     256         conv2d_23[0][0]                  \n","__________________________________________________________________________________________________\n","conv2d_24 (Conv2D)              (None, 8, 8, 64)     36928       batch_normalization_22[0][0]     \n","__________________________________________________________________________________________________\n","batch_normalization_23 (BatchNo (None, 8, 8, 64)     256         conv2d_24[0][0]                  \n","__________________________________________________________________________________________________\n","conv2d_transpose_1 (Conv2DTrans (None, 16, 16, 64)   36928       batch_normalization_23[0][0]     \n","__________________________________________________________________________________________________\n","concatenate_6 (Concatenate)     (None, 16, 16, 128)  0           conv2d_transpose_1[0][0]         \n","                                                                 conv2d_21[0][0]                  \n","__________________________________________________________________________________________________\n","batch_normalization_24 (BatchNo (None, 16, 16, 128)  512         concatenate_6[0][0]              \n","__________________________________________________________________________________________________\n","conv2d_25 (Conv2D)              (None, 16, 16, 96)   110688      batch_normalization_24[0][0]     \n","__________________________________________________________________________________________________\n","batch_normalization_25 (BatchNo (None, 16, 16, 96)   384         conv2d_25[0][0]                  \n","__________________________________________________________________________________________________\n","conv2d_26 (Conv2D)              (None, 16, 16, 64)   55360       batch_normalization_25[0][0]     \n","__________________________________________________________________________________________________\n","batch_normalization_26 (BatchNo (None, 16, 16, 64)   256         conv2d_26[0][0]                  \n","__________________________________________________________________________________________________\n","conv2d_transpose_2 (Conv2DTrans (None, 32, 32, 64)   36928       batch_normalization_26[0][0]     \n","__________________________________________________________________________________________________\n","concatenate_7 (Concatenate)     (None, 32, 32, 128)  0           conv2d_transpose_2[0][0]         \n","                                                                 conv2d_18[0][0]                  \n","__________________________________________________________________________________________________\n","batch_normalization_27 (BatchNo (None, 32, 32, 128)  512         concatenate_7[0][0]              \n","__________________________________________________________________________________________________\n","conv2d_27 (Conv2D)              (None, 32, 32, 96)   110688      batch_normalization_27[0][0]     \n","__________________________________________________________________________________________________\n","batch_normalization_28 (BatchNo (None, 32, 32, 96)   384         conv2d_27[0][0]                  \n","__________________________________________________________________________________________________\n","conv2d_28 (Conv2D)              (None, 32, 32, 64)   55360       batch_normalization_28[0][0]     \n","__________________________________________________________________________________________________\n","batch_normalization_29 (BatchNo (None, 32, 32, 64)   256         conv2d_28[0][0]                  \n","__________________________________________________________________________________________________\n","conv2d_transpose_3 (Conv2DTrans (None, 64, 64, 64)   36928       batch_normalization_29[0][0]     \n","__________________________________________________________________________________________________\n","concatenate_8 (Concatenate)     (None, 64, 64, 128)  0           conv2d_transpose_3[0][0]         \n","                                                                 conv2d_15[0][0]                  \n","__________________________________________________________________________________________________\n","batch_normalization_30 (BatchNo (None, 64, 64, 128)  512         concatenate_8[0][0]              \n","__________________________________________________________________________________________________\n","conv2d_29 (Conv2D)              (None, 64, 64, 96)   110688      batch_normalization_30[0][0]     \n","__________________________________________________________________________________________________\n","batch_normalization_31 (BatchNo (None, 64, 64, 96)   384         conv2d_29[0][0]                  \n","__________________________________________________________________________________________________\n","conv2d_30 (Conv2D)              (None, 64, 64, 64)   55360       batch_normalization_31[0][0]     \n","__________________________________________________________________________________________________\n","batch_normalization_32 (BatchNo (None, 64, 64, 64)   256         conv2d_30[0][0]                  \n","__________________________________________________________________________________________________\n","conv2d_transpose_4 (Conv2DTrans (None, 128, 128, 64) 36928       batch_normalization_32[0][0]     \n","__________________________________________________________________________________________________\n","concatenate_9 (Concatenate)     (None, 128, 128, 128 0           conv2d_transpose_4[0][0]         \n","                                                                 conv2d_12[0][0]                  \n","__________________________________________________________________________________________________\n","batch_normalization_33 (BatchNo (None, 128, 128, 128 512         concatenate_9[0][0]              \n","__________________________________________________________________________________________________\n","conv2d_31 (Conv2D)              (None, 128, 128, 96) 110688      batch_normalization_33[0][0]     \n","__________________________________________________________________________________________________\n","batch_normalization_34 (BatchNo (None, 128, 128, 96) 384         conv2d_31[0][0]                  \n","__________________________________________________________________________________________________\n","conv2d_32 (Conv2D)              (None, 128, 128, 64) 55360       batch_normalization_34[0][0]     \n","__________________________________________________________________________________________________\n","batch_normalization_35 (BatchNo (None, 128, 128, 64) 256         conv2d_32[0][0]                  \n","__________________________________________________________________________________________________\n","conv2d_transpose_5 (Conv2DTrans (None, 256, 256, 64) 36928       batch_normalization_35[0][0]     \n","__________________________________________________________________________________________________\n","concatenate_10 (Concatenate)    (None, 256, 256, 128 0           conv2d_transpose_5[0][0]         \n","                                                                 conv2d_9[0][0]                   \n","__________________________________________________________________________________________________\n","batch_normalization_36 (BatchNo (None, 256, 256, 128 512         concatenate_10[0][0]             \n","__________________________________________________________________________________________________\n","conv2d_33 (Conv2D)              (None, 256, 256, 96) 110688      batch_normalization_36[0][0]     \n","__________________________________________________________________________________________________\n","batch_normalization_37 (BatchNo (None, 256, 256, 96) 384         conv2d_33[0][0]                  \n","__________________________________________________________________________________________________\n","conv2d_34 (Conv2D)              (None, 256, 256, 64) 55360       batch_normalization_37[0][0]     \n","__________________________________________________________________________________________________\n","conv2d_35 (Conv2D)              (None, 256, 256, 1)  65          conv2d_34[0][0]                  \n","==================================================================================================\n","Total params: 1,617,441\n","Trainable params: 1,612,513\n","Non-trainable params: 4,928\n","__________________________________________________________________________________________________\n"],"name":"stdout"}]},{"cell_type":"markdown","metadata":
…
